code/mnistlow.tflite (tflite, 5200 bytes, 3 tensors)

sequential/conv2d/Conv2D f4 [1, 28, 28, 1]
0	0xbd00b375	-0.031421144
1	0xbbe77d40	-0.0070644915
2	0x3d6bafa9	0.05754057
3	0xbb7d2d10	-0.0038631596
4	0x3a20bd80	0.00061317533
5	0x3d39f96f	0.045403894
6	0xbd349386	-0.044086
7	0x3c5e53dc	0.013569798
8	0xbcb4c750	-0.022067696
9	0xbd75ebcb	-0.060039323
10	0x3cb72252	0.022355232
11	0xbd2e553a	-0.042561747
12	0xbd6c86db	-0.057745796
13	0x3e83333d	0.2562503
14	0x3f1a4507	0.6026158
15	0x3f2c4517	0.6729292
16	0xbcd07ef0	-0.025451154
17	0x3d626c65	0.055279154
18	0x3d491ef1	0.049101774
19	0xbc3a2284	-0.011360768
20	0xb991b780	-0.00027793273
21	0x3d1bec35	0.03806706
22	0x3ceacdae	0.028662529
23	0x3c2ca244	0.010536734
24	0x3b6faaf0	0.0036570393
25	0x3d34132f	0.043963607
26	0x3d1918e5	0.037377257
27	0x3d62f213	0.05540664
28	0xbc8c8e26	-0.017157625
29	0xbcb8305c	-0.022483997
30	0x3cdac14a	0.026703496
31	0x3d331d3b	0.04372905
32	0x3d2ffc47	0.0429652
33	0xbc64fdd0	-0.013976529
34	0xbf9e827f	-1.2383574
35	0xbfab41fa	-1.337951
36	0xbf7a0e2e	-0.97677886
37	0xbf101da0	-0.56295204
38	0xbf19c64d	-0.6006821
39	0xbf3a481c	-0.7276628
40	0xbf707284	-0.93924737
41	0x3f9782d3	1.1836799
42	0x407feade	3.9987102
43	0x3fcb6a55	1.5891825
44	0xbf3eed7c	-0.7458112
45	0xbfd9f734	-1.7028565
46	0xbefc6f74	-0.49303782
47	0xc026ed90	-2.6082497
48	0xc03f2906	-2.9868789
49	0xc01df567	-2.4681032
50	0xbfd76980	-1.6829071
51	0xbfd7fba3	-1.6873668
52	0xbd436ef8	-0.04771325
53	0x3c0ffcb4	0.008788276
54	0xbbee54b8	-0.007273283
55	0xbc11ac3c	-0.0088911615
56	0x3cd51aae	0.026013698
57	0xbd5d7b16	-0.054072462
58	0xbbd7ad90	-0.0065819696
59	0xc028a877	-2.6352823
60	0xc0322e12	-2.784062
61	0xbe1e27e6	-0.15444908
62	0xbf9eb287	-1.2398232
63	0xc0595a6e	-3.3961444
64	0xc0554c78	-3.3327923
65	0xc080d504	-4.026003
66	0xc082e2e7	-4.090198
67	0xc0368b82	-2.852265
68	0xc09beec2	-4.8728952
69	0xc099ff82	-4.81244
70	0xc076f91f	-3.8589551
71	0xbf977ab9	-1.1834327
72	0xc02986e5	-2.6488583
73	0xbfb57b0b	-1.4178175
74	0xc00a9d3c	-2.1658468
75	0xbf449c92	-0.7680141
76	0xbee2583f	-0.4420795
77	0xc0855c00	-4.1674805
78	0xc054c3f1	-3.3244593
79	0xbec87d96	-0.39158314
80	0xbeca559d	-0.39518443
81	0xbfa3559b	-1.27605
82	0xbcadb8d0	-0.02120629
83	0xbcc99b20	-0.024610102
84	0x3d6120dd	0.05496298
85	0xbd2810c6	-0.04103162
86	0x407186bf	3.7738492
87	0xc05de972	-3.4673734
88	0xbfee1391	-1.8599721
89	0xbf321301	-0.6956025
90	0xbf2dda18	-0.6791091
91	0xbf1261bf	-0.571804
92	0xbfc819e3	-1.56329
93	0xbf6acc39	-0.9171787
94	0xbf9a31e8	-1.204648
95	0xbf7e34b9	-0.992992
96	0xbf1cd7ba	-0.6126667
97	0xbf975d39	-1.1825324
98	0xbfb2fca5	-1.3983351
99	0xbf947305	-1.1597601
100	0xbf99e061	-1.20216
101	0xbfa41e2e	-1.282171
102	0xbf8a247d	-1.0792385
103	0xbf81d4b1	-1.0143033
104	0xbf8fd83c	-1.1237864
105	0xbef44c52	-0.47714478
106	0xbf448885	-0.7677081
107	0xbd58a700	-0.05289364
108	0xc0096bf4	-2.147214
109	0xbfa37d87	-1.2772683
110	0xc049e30a	-3.1544824
111	0xbc6182ac	-0.013764065
112	0xbb82ddb0	-0.0039937124
113	0x3fe8caf3	1.8186935
114	0x40810917	4.0323596
115	0x3e8d2009	0.27563503
116	0x3f09fbcf	0.53899854
117	0xbec2bcb9	-0.3803461
118	0xbe8400ff	-0.2578201
119	0x3d37242d	0.044712234
120	0x3dde40b4	0.10852185
121	0xbd3ed244	-0.046587244
122	0x3b03c5a3	0.0020106814
123	0x3de3ebc2	0.111289516
124	0xbd5da813	-0.054115366
125	0xbd706a8e	-0.05869537
126	0x3c1ee1b8	0.00969737
127	0xbdab594d	-0.08366642
128	0x3c6834c2	0.014172735
129	0xbcf5ed23	-0.030020302
130	0xbda84047	-0.08215385
131	0x3cb38ce0	0.02191776
132	0xbba2bc0e	-0.0049662655
133	0x3dd0194b	0.10161074
134	0xbd7f00cd	-0.062256623
135	0x3daae900	0.083452225
136	0x3db93ced	0.09044824
137	0xbdac9f6e	-0.08428846
138	0x3e991886	0.29901522
139	0xc05dea39	-3.4674208
140	0xbd55ae1f	-0.052168008
141	0xbc583114	-0.013195295
142	0xbfede61f	-1.8585852
143	0x3f92c608	1.1466684
144	0xbf2152a9	-0.63016754
145	0x3ead2ca2	0.33823115
146	0x3df2ca7b	0.11855026
147	0x3c81ee81	0.015860798
148	0xbd33980a	-0.043846168
149	0x3e24d684	0.16097456
150	0xbcf0a2fb	-0.02937459
151	0xbb8aeb24	-0.0042394567
152	0x3d8ca406	0.068672225
153	0xbdc205bd	-0.09473751
154	0xbce86416	-0.028368037
155	0xbc961df7	-0.018324835
156	0xbe11769e	-0.14205405
157	0xbdd60470	-0.10450065
158	0x3cee9c24	0.029127188
159	0xbc41a5c5	-0.011819308
160	0x3dd01e0c	0.10161981
161	0x3d9cefca	0.07662924
162	0x3e69163d	0.2276239
163	0x3dc34073	0.09533777
164	0x3e1aa475	0.15101798
165	0x3dca1617	0.098674946
166	0xbd5213b3	-0.051288318
167	0xc04b0b8d	-3.17258
168	0x3ceed26e	0.029153075
169	0xc01ea0ef	-2.4785726
170	0xbf2977cd	-0.66198426
171	0xbeca9338	-0.39565444
172	0x3e46be3a	0.19408503
173	0x3e889285	0.26674286
174	0x3d9b1749	0.07572801
175	0x3df38c1e	0.118919596
176	0x3d33194e	0.043725304
177	0x3d0153bb	0.031573992
178	0x3c5a9856	0.013341984
179	0x3dcc8184	0.09985641
180	0xbdac5f17	-0.084165744
181	0xbc35fe3b	-0.011107977
182	0x3d860472	0.065438166
183	0xbd07b17f	-0.033128258
184	0x3d9d9211	0.076938756
185	0x3dcf0f30	0.10110319
186	0x3d80d2b8	0.062901914
187	0x3d3695ae	0.04457634
188	0x3af42baf	0.0018628741
189	0x3d5f0fb8	0.05445835
190	0x3beef2de	0.0072921356
191	0x3e4b937a	0.19880477
192	0x3dbd92c5	0.0925651
193	0xbd658ab0	-0.056040466
194	0xbcf41e60	-0.02979964
195	0xbfa31910	-1.2742023
196	0x4046870a	3.1019921
197	0xc013384a	-2.3003106
198	0x3f43c129	0.76466614
199	0x3ec72b88	0.389004
200	0xbe708dab	-0.23491542
201	0xbd5a7fba	-0.053344466
202	0xbb864416	-0.004097472
203	0x3ca5dcd7	0.020246906
204	0x3cf806ed	0.03027674
205	0x3cbfe779	0.023425804
206	0x3dc76f64	0.09738043
207	0xbc795302	-0.0152175445
208	0x3d7f26be	0.062292807
209	0x3dd07b87	0.10179811
210	0xbd077b00	-0.033076286
211	0xbb85c3cb	-0.004082178
212	0x3de27203	0.11056902
213	0xbc94c4c5	-0.018160233
214	0xbcc16440	-0.023607373
215	0x3d978f47	0.07400375
216	0x3e538359	0.20655574
217	0xbcbf2e20	-0.023337424
218	0x3d8b362f	0.06797444
219	0xbc143e82	-0.009048106
220	0xbd54a4fe	-0.05191516
221	0xbde49c89	-0.11162669
222	0x3dca7412	0.0988542
223	0x3dcc5a78	0.09978193
224	0xc035110b	-2.8291652
225	0x3f0d0c44	0.5509684
226	0x3fe9b28c	1.8257613
227	0xbe4f5892	-0.2024863
228	0x3e0bf1cf	0.13666461
229	0xbdbd7b51	-0.09252036
230	0xbcec30f2	-0.028831933
231	0x3df58840	0.11988878
232	0x3e39368b	0.18087213
233	0xba5d3c52	-0.00084394694
234	0x3d2d902b	0.042373817
235	0x3da67230	0.08127248
236	0xbc7875f8	-0.015164845
237	0x3dc179d6	0.094470665
238	0xbd6d9604	-0.058004394
239	0x3c1bb354	0.009503204
240	0xbd5c4e98	-0.05378589
241	0x3d021cfc	0.031765923
242	0x3d6931f3	0.0569324
243	0x37bd6700	2.2578519e-05
244	0xbce3c8a9	-0.027805643
245	0x3d360353	0.044436764
246	0xbca5bf07	-0.02023269
247	0x3bc441f6	0.0059893085
248	0x3e0ac56c	0.13551873
249	0xbd7ea02a	-0.062164463
250	0x3d0adcfc	0.033902153
251	0xbe0355df	-0.12825726
252	0x4064bfa5	3.574197
253	0x3fa30600	1.2736206
254	0x3f329cc7	0.69770473
255	0x3ef71fc5	0.48266426

sequential/dense/BiasAdd/ReadVariableOp/resource f4 [10]
0	0x40b85308	5.7601357
1	0xbf1b95f2	-0.60775673
2	0x40a816b3	5.252771
3	0x40597ab9	3.3981154
4	0xc0a1dd06	-5.0582304
5	0x406f3ced	3.7380936
6	0x40beddc9	5.9645734
7	0xc12fb6b8	-10.982109
8	0x40311134	2.766675
9	0xc106a364	-8.41489

sequential/dense/MatMul f4 [10, 1]
0	0xc0179a34	-2.3687868
1	0x3ddb39c3	0.107043765
2	0xbfe4b41c	-1.7867465
3	0xbf6dce29	-0.928927
4	0x3f64e833	0.8941681
5	0xbf88cb4f	-1.0687045
6	0xc03bed91	-2.936375
7	0x3fd95350	1.697855
8	0xbf3e3d7e	-0.7431258
9	0x3fb22726	1.3918197
