code/onnx_model.onnx (onnx, 380724 bytes, 10 tensors)

dense_1/kernel:0 f4 [128, 10]
0.069947585 0.093094006 0.02517549 -0.085729904 0.09133114 -0.21416181 -0.21710707 -0.1581724
0.12701322 0.10744321 0.012975469 -0.14296223 0.109106235 0.17859991 -0.03510076 0.13164839
-0.18609312 0.07860055 0.14217554 0.1544301 -0.22178167 0.16139162 0.19882427 -0.3472233
0.19088684 -0.14053613 -0.1708103 0.06992048 0.07619474 -0.0023475925 -0.38386238 -0.023141475
-0.12819277 -0.034341983 0.2344649 -0.19786209 -0.16076787 0.2254666 -0.32475346 0.07021196
-0.036406495 -0.14585038 0.1588466 -0.19259275 -0.029160028 -0.08349571 -0.09662545 -0.100989014
0.049923234 0.07112895 -0.1348367 -0.16120104 0.20868002 0.19814397 0.12514304 -0.1760438
0.02840611 -0.04796359 0.11592591 -0.16853908 -0.07912145 0.026382452 0.17363457 -0.09768627
-0.1534857 0.13528532 0.21851866 -0.0023105599 0.15253842 -0.050386906 0.16799127 -0.34355885
-0.10397018 -0.08078264 -0.05820828 0.02122956 0.19020712 -0.17572373 0.09173449 0.028691525
0.027637962 0.028453056 -0.21285972 -0.0059342114 -0.029167933 -0.19742599 0.035672024 -0.058376737
-0.07709305 0.066971816 0.17415226 0.14257708 0.13104133 0.07922388 0.22494927 -0.08865084
-0.06804764 0.0022282896 0.15327281 -0.16577588 -0.053405926 -0.059143964 0.11605462 -0.195475
0.16960722 -0.21982972 -0.0052354867 0.010289596 -0.30688488 0.24611405 0.029576922 -0.3523584
-0.092984416 0.0683953 0.16239305 0.18281674 0.12526107 -0.24412172 0.18844394 0.1452204
0.21020299 0.18995523 -0.062431738 -0.14388312 0.1808428 -0.14446023 0.06369512 -0.3947089
0.14218171 -0.111931935 -0.22283036 0.24062237 -0.047395807 -0.32343924 0.4216844 -0.040245645
-0.17141767 -0.20866138 -0.21397053 -0.23808344 -0.19865927 0.089146115 0.14923619 0.008408817
-0.17147645 0.19379982 -0.09952837 0.17490087 0.12537688 0.014285717 0.05155236 0.04609464
-0.06178525 0.1418565 -0.054447573 0.088990055 -0.19218016 0.17219889 0.12144931 0.026313748
-0.02286573 0.10287465 0.19275105 -0.08056391 0.16636151 0.10190869 0.086903766 0.20554255
0.18615016 -0.18614721 0.13367957 0.24269004 -0.457665 -0.011286765 -0.391771 0.21613583
-0.36169058 -0.21573257 -0.15862037 0.17156975 -0.19089215 0.015589174 -0.111445114 0.19354706
0.04379781 -0.14425981 -0.24645326 0.066407844 0.21216656 0.15613446 -0.014988664 -0.056629833
-0.09383516 0.07767275 -0.11350574 0.09274889 0.030790407 -0.13228609 0.1063142 0.19210869
0.22171524 0.2657286 -0.21290909 -0.21325523 -0.16859178 -0.46232414 0.22493792 -0.08847438
-0.14497639 0.052398637 0.1459137 0.17276907 -0.12982717 -0.21892436 -0.045522187 -0.0007166538
-0.061091408 0.010295679 -0.034107637 0.10481666 0.0031167166 -0.021585964 -0.0428796 -0.18563056
-0.14600354 -0.13449602 -0.1543189 0.021592507 0.20691901 -0.058031064 -0.0038408586 -0.29467225
-0.2754875 -0.1213364 0.115668215 -0.07999979 -0.038189076 -0.2960779 -0.017857054 -0.28556696
-0.008416844 0.04300186 0.14645255 0.20412016 -0.27685153 -0.039389174 0.22342402 -0.015477769
0.13515985 -0.053172365 0.14609855 -0.07526854 -0.019896215 -0.06375402 -0.08499688 -0.03980663
00000000: ae40 8f3d 12a8 be3d d43c ce3c 2993 afbd
00000010: d20b bb3d 3c4d 5bbe 5151 5ebe f2f7 21be
00000020: c10f 023e 300b dc3d 1097 543c b164 12be
00000030: 1773 df3d e5e2 363e d1c5 0fbd d6ce 063e
00000040: 328f 3ebe 53f9 a03d 7796 113e ed22 1e3e
00000050: bc1a 63be d843 253e 9798 4b3e 41c7 b1be
00000060: d777 433e b4e8 0fbe e5e8 2ebe 7832 8f3d
00000070: fd0b 9c3d 11da 19bb 9c89 c4be 3193 bdbc
00000080: f744 03be 2eaa 0cbd 9117 703e 5c9c 4abe
00000090: 55a0 24be b7e0 663e 1646 a6be 4acb 8f3d
000000a0: fa1e 15bd cd59 15be afa8 223e 0937 45be
000000b0: 03e1 eebc ccff aabd 90e3 c5bd 54d3 cebd
000000c0: 4e7c 4c3d 0eac 913d a212 0abe e311 25be
000000d0: 37b0 553e 41e6 4a3e 7f25 003e d344 34be
000000e0: eeb3 e83c 7875 44bd 906a ed3d 8295 2cbe
000000f0: 6d0a a2bd 0320 d83c 43cd 313e bd0f c8bd
00000100: 5b2b 1dbe 3c88 0a3e 5bc3 5f3e c36c 17bb
00000110: 0833 1c3e 8062 4ebd e705 2c3e f2e6 afbe
00000120: 51ee d4bd 5e71 a5bd ce6b 6ebd 9de9 ad3c
00000130: a8c5 423e ecf0 33be 4bdf bb3d 7d0a eb3c
00000140: 0269 e23c 6216 e93c e6f7 59be c673 c2bb
00000150: 97f1 eebc 0a2a 4abe d41c 123d 721c 6fbd
00000160: f6e2 9dbd 8528 893d f854 323e baff 113e
00000170: b32f 063e 2140 a23d 1a59 663e 928e b5bd
00000180: 905c 8bbd 7f08 123b 8cf3 1c3e 27c1 29be
00000190: 2cc0 5abd f140 72bd 0bae ed3d 992a 48be
000001a0: 84ad 2d3e 0b1b 61be 728e abbb b295 283c
000001b0: 0420 9dbe 5205 7c3e 4d4b f23c 5268 b4be
000001c0: 9d6e bebd d612 8c3d 5d4a 263e 5034 3b3e
000001d0: 7044 003e 0bfb 79be 73f7 403e a8b4 143e
000001e0: 743f 573e a083 423e 6cb8 7fbd 1956 13be
000001f0: db2e 393e 62ed 13be 9672 823d 4917 cabe
00000200: 1598 113e 923c e5bd a42d 64be b665 763e
00000210: 1b22 42bd d499 a5be 05e7 d73e 9ed8 24bd
00000220: 1d88 2fbe 54ab 55be 171b 5bbe 25cc 73be
00000230: 566d 4bbe 3d92 b63d 5fd1 183e 23c5 093c
00000240: 8697 2fbe 7673 463e 88d5 cbbd 3719 333e
00000250: cc62 003e a40e 6a3c 9128 533d bccd 3c3d
00000260: 8812 7dbd d542 113e 6b04 5fbd 6b40 b63d
00000270: e0ca 44be e854 303e 6aba f83d ee8f d73c
00000280: e950 bbbc f2af d23d 8860 453e b1fe a4bd
00000290: ac5a 2a3e 81b5 d03d 9afa b13d bf79 523e
000002a0: 269e 3e3e 609d 3ebe 4ce3 083e bd83 783e
000002b0: 1153 eabe 20ec 38bc 3596 c8be b652 5d3e
000002c0: 822f b9be 00e9 5cbe 616d 22be fbaf 2f3e
000002d0: 3b79 43be bc69 7f3c 563d e4bd 3331 463e
000002e0: 5565 333d d8b8 13be 3e5e 7cbe d600 883d
000002f0: 3142 593e b6e1 1f3e 0393 75bc aff4 67bd
00000300: a62c c0bd e412 9f3d b375 e8bd 21f3 bd3d
00000310: 2a3c fc3c 0176 07be 42bb d93d 24b8 443e
00000320: 5209 633e 940d 883e d704 5abe 945f 5abe
00000330: 53a3 2cbe c0b5 ecbe 2056 663e 0e32 b5bd
00000340: b174 14be f49f 563d 676a 153e 60ea 303e
00000350: 6af1 04be b52d 60be 7975 3abd d3dd 3bba
00000360: fc3a 7abd 35af 283c 73b4 0bbd 1eaa d63d
00000370: d441 4c3b 0cd5 b0bc 85a2 2fbd f015 3ebe
00000380: f481 15be 53b9 09be c605 1ebe c5e2 b03c
00000390: 94e2 533e fbb1 6dbd eab6 7bbb 48df 96be
000003a0: b30c 8dbe 387f f8bd 75e3 ec3d eed6 a3bd
000003b0: 266c 1cbd 8697 97be f548 92bc d535 92be
000003c0: cde6 09bc b822 303d a8f7 153e e004 513e
000003d0: 7cbf 8dbe 8b56 21bd 44c9 643e 7896 7dbc
000003e0: 5867 0a3e 44cb 59bd dc9a 153e 6426 9abd
000003f0: 63fd a2bc 7891 82bd d812 aebd 470c 23bd

dense_1/bias:0 f4 [10]
0.024375802 0.05157749 -0.07821572 0.023468323 -0.03560746 -0.030258024 -0.022256823 0.047720738
0.0233227 0.0034281146
00000000: c3af c73c eb42 533d 902f a0bd a440 c03c
00000010: 21d9 11bd addf f7bc f153 b6bc d276 433d
00000020: 3f0f bf3c 38aa 603b

dense/kernel:0 f4 [512, 128]
-0.0134467 0.119670235 0.053006016 -0.027265133 -0.0040627504 -0.16888116 0.014306206 -0.0451864
0.03926217 0.0063556326 0.06779688 -0.014445458 0.08870576 0.033405975 0.037361253 0.07630633
0.006895513 -0.14011197 -0.04951757 -0.021917898 -0.09878844 -0.01885878 0.059551034 -0.2148524
-0.031049697 -0.022796804 0.0108438 0.13055524 0.004704245 -0.009741729 0.027776588 -0.059745207
-0.07996882 -0.029009484 0.04215374 -0.024536118 0.0034655523 -0.067242995 -0.029896172 0.06435034
-0.05466869 -0.01608129 -0.023207959 0.15916206 -0.011381417 0.0024798363 -0.022438616 0.08816588
0.050306723 -0.09848356 -0.017486995 -0.019112932 0.0024122512 -0.12918885 0.08272644 -0.08488296
0.14791308 -0.009912927 0.047436822 0.01511085 -0.0056310412 -0.09865113 0.12162924 0.1531226
0.041855678 0.16084822 0.030408608 0.062226277 -0.033189204 0.04477733 0.076568834 -0.11014187
0.10600221 -0.022621509 -0.024366071 0.04373678 -0.017182408 0.08569344 0.03112262 0.029766304
0.12712662 -0.006477136 0.009619527 -0.062629215 -0.06282424 0.024242744 0.09117152 -0.03934012
-0.14641811 -0.032510813 0.013733778 0.024349775 -0.34789506 -0.08511716 -0.02964476 0.0693591
0.04773119 0.0824589 -0.07365371 -0.011398358 -0.047175832 0.061381254 0.12920663 0.05250405
-0.21330969 -0.0042509153 0.11491718 0.057817817 0.0050904476 0.0426906 0.073230565 -0.048052046
-0.15420553 -0.021065818 -0.07736741 0.090095825 0.0138132395 -0.04953352 0.22736359 0.015676735
0.25177404 0.046991386 0.21522464 0.10042508 -0.059860937 -0.07722456 0.056596916 0.13272186
0.0035746798 -0.039107416 -0.003368227 -0.041437823 0.05204112 0.001412401 -0.048846442 -0.046710987
0.0024541 -0.011067398 -0.08713116 0.059278578 -0.023574468 -0.0009749082 -0.03689885 0.033167966
-0.038893588 -0.15379135 -0.091891095 -0.0088724615 -0.08472733 -0.023916135 -0.0018404748 0.046355154
-0.061940815 0.052946903 -0.14317404 -0.17689739 -0.015005438 0.0959623 -0.07019185 -0.049357608
-0.046761896 0.010752172 -0.034961823 -0.09913308 0.08079733 -0.041528523 -0.0042254715 0.00469946
-0.043892354 0.005537701 -0.08417662 -0.16563033 -0.026213257 -0.022191832 -0.050628915 -0.2528314
0.008796412 -0.022394069 0.0046139816 -0.0038992811 -0.07731814 -0.06543154 -0.077236 0.08227275
0.09227302 -0.11155211 -0.088108845 -0.009731413 0.060515653 -0.09915944 -0.007830665 0.26020738
0.057951406 0.056203276 -0.1000313 0.098574996 -0.0047487654 -0.05306934 -0.1296275 -0.06455133
0.29509732 -0.13310568 -0.20327249 -0.08718093 0.05937965 -0.104704164 -0.004224078 0.15798292
-0.099294715 -0.16513115 0.008055242 -0.18089615 0.14229967 -0.12054867 0.123845205 0.06620247
-0.080729604 -0.025055872 0.02446018 0.14512357 -0.008050018 -0.043957517 -0.08281619 -0.114363894
-0.029374603 0.03778358 -0.024054974 0.11034492 0.11698189 -0.06022879 0.12156599 0.031767044
-0.12509026 0.0031411278 0.023860822 0.01813651 0.072602384 0.14494355 -0.0071415883 0.13626687
-0.15047552 -0.16811511 -0.06600815 0.13825376 0.09657824 0.024578437 0.21836966 0.013102699
0.027071675 -0.0045770085 -0.018546369 -0.059835482 -0.10367465 -0.022960337 0.026568107 0.09704075
00000000: 8c4f 5cbc ab15 f53d d61c 593d 215b dfbc
00000010: d220 85bb 2fef 2cbe 9464 6a3c 6015 39bd
00000020: 5fd1 203d e942 d03b 17d9 8a3d a4ac 6cbc
00000030: 5eab b53d b4d4 083d 1d08 193d 7e46 9c3d
00000040: c1f3 e13b 8379 0fbe efd2 4abd 2a8d b3bc
00000050: 9851 cabd ba7d 9abc c9eb 733d 4402 5cbe
00000060: ef5b febc 5dc0 babc 32aa 313c 46b0 053e
00000070: 1126 9a3b c69b 1fbc ba8b e33c 64b7 74bd
00000080: b1c6 a3bd 4ca5 edbc 66a9 2c3d f8ff c8bc
00000090: 521e 633b b2b6 89bd d1e8 f4bc 1cca 833d
000000a0: 47ec 5fbd e9bc 83bc 9e1e bebc 61fb 223e
000000b0: 1f79 3abc c084 223b 30d1 b7bc 5090 b43d
000000c0: 6c0e 4e3d c0b1 c9bd e340 8fbc b992 9cbc
000000d0: dc16 1e3b 154a 04be 7b6c a93d 1ed7 adbd
000000e0: 8776 173e d469 22bc 1d4d 423d 8093 773c
000000f0: 9984 b8bb 9b09 cabd c018 f93d 2ccc 1c3e
00000100: dc70 2b3d 65b5 243e 791b f93c fbe0 7e3d
00000110: 67f1 07bd 6f68 373d 1fd0 9c3d 1092 e1bd
00000120: b017 d93d be50 b9bc 5b9b c7bc 5625 333d
00000130: 1fc2 8cbc 0b80 af3d ddf4 fe3c 77d8 f33c
00000140: 7b2d 023e 283e d4bb 389b 1d3c bf43 80bd
00000150: ffa9 80bd b898 c63c 22b8 ba3d 1b23 21bd
00000160: a1ee 15be 0f2a 05bd a403 613c 2e79 c73c
00000170: 4d1f b2be e851 aebd 91d9 f2bc 250c 8e3d
00000180: c881 433d 36e0 a83d c2d7 96bd 2ec0 3abc
00000190: 723b 41bd e96a 7b3d be4e 043e 7d0e 573d
000001a0: db6d 5abe 434b 8bbb b359 eb3d 60d2 6c3d
000001b0: c5cd a63b 57dc 2e3d e8f9 953d 39d2 44bd
000001c0: 0ee8 1dbe 3992 acbc ce72 9ebd 2984 b83d
000001d0: ed50 623c a9e3 4abd 00d2 683e 7f6c 803c
000001e0: 87e8 803e 0a7a 403d d963 5c3e aaab cd3d
000001f0: be30 75bd e927 9ebd 2bd2 673d 3de8 073e
00000200: 2d45 6a3b 192f 20bd 79bd 5cbb b5ba 29bd
00000210: 1229 553d 5020 b93a 3513 48bd 0554 3fbd
00000220: f7d4 203b 0854 35bc d271 b2bd 18ce 723d
00000230: 3e1f c1bc fb90 7fba 4023 17bd 22db 073d
00000240: e24e 1fbd 7b7b 1dbe 6631 bcbd cd5d 11bc
00000250: 8685 adbd c5eb c3bc 163c f1ba e7de 3d3d
00000260: a7b5 7dbd dade 583d 379c 12be 9724 35be
00000270: 5ed9 75bc e287 c43d bfc0 8fbd 342b 4abd
00000280: 6789 3fbd e129 303c 2134 0fbd 4906 cbbd
00000290: 1279 a53d d019 2abd d375 8abb eefd 993b
000002a0: 78c8 33bd 9a75 b53b cb64 acbd ff9a 29be
000002b0: 2fbd d6bc a5cb b5bc 4460 4fbd 1e73 81be
000002c0: d31e 103c c473 b7bc e230 973b 158b 7fbb
000002d0: f958 9ebd f900 86bd e82d 9ebd 9e7e a83d
000002e0: a3f9 bc3d 6f75 e4bd 6972 b4bd 8170 1fbc
000002f0: 43df 773d 1b14 cbbd 314c 00bc e739 853e
00000300: 745e 6d3d 6835 663d 36dd ccbd b0e1 c93d
00000310: 889b 9bbb 3c5f 59bd 12bd 04be 7d33 84bd
00000320: ff16 973e db4c 08be aa26 50be ea8b b2bd
00000330: 1338 733d 236f d6bd 226a 8abb 46c6 213e
00000340: 075b cbbd 2418 29be 22fa 033c d73c 39be
00000350: 01b7 113e 39e2 f6bd 8ea2 fd3d 2995 873d
00000360: 9055 a5bd f941 cdbc b760 c83c 469b 143e
00000370: 39e4 03bc cc0c 34bd 899b a9bd 9e37 eabd
00000380: 02a3 f0bc f5c2 1a3d f00e c5bc 84fc e13d
00000390: 3394 ef3d 77b2 76bd 97f7 f83d 291e 023d
000003a0: a917 00be 61db 4d3b c577 c33c 0593 943c
000003b0: 8fb0 943d 156c 143e fc03 eabb 8b89 0b3e
000003c0: 4116 1abe 5e26 2cbe 482f 87bd 6592 0d3e
000003d0: d0ca c53d b858 c93c 4c9c 5f3e b4ac 563c
000003e0: 6bc5 dd3c bbfa 95bb 8eee 97bc 0d16 75bd
000003f0: 6053 d4bd 5117 bcbc 5ca5 d93c 4dbd c63d

dense/bias:0 f4 [128]
-0.020339485 -0.006487889 0.017539356 0.012728271 -0.02191615 -0.03413026 0.007429455 0.013806657
-0.013228195 -0.009415109 0.019601297 -0.014304936 0.09145823 0.034566727 -0.041016817 0.0779595
-0.010791966 0.097736955 0.04679724 -0.030106189 0.08219473 -0.017429307 -0.016015623 0.0013825868
0.010483384 -0.020027105 0.035579134 0.0017973958 0.08152417 -0.00030065537 0.034219213 -0.016064854
-0.089924686 -0.057104096 -0.00964204 0.008524008 0.043738905 -0.011125271 0.0028621056 0.024674773
-0.035164524 -0.00053895835 -0.0349298 -0.05554952 -0.027472697 -0.01676149 0.048355855 0.0077108745
-0.02456525 0.037523832 -0.013321604 0.036722556 -0.017938232 -0.075732484 0.01958316 0.08317549
-0.004678126 -0.061440933 -0.011419529 0.027066566 -0.009439663 -0.048912432 0.039649703 0.039916694
-0.028426388 0.022606948 -0.0015706711 0.0076672547 0.10537605 -0.012709023 0.080646 -0.037910588
0.077695586 0.090323135 0.006002377 -0.0018939241 0.03304246 -0.018134018 0.03636118 -0.06006702
0.006811921 -0.0073491866 -0.008604101 -0.014737786 -0.0034818894 -0.029164534 0.049364496 -0.015630769
-0.03125243 0.0036419076 0.04747729 0.014989401 0.05901699 -0.03121653 0.013643057 0.010161389
-0.0042939894 0.0005639246 0.09150895 -0.06254915 0.007889094 0.03868063 0.012948681 0.044901144
0.063104525 -0.08156279 0.045889556 0.0573183 0.040080022 0.024871988 0.07696449 0.0052726506
0.025498735 0.023675382 0.04438031 0.040684536 0.008553753 0.009228866 0.13553146 -0.0057649883
0.16039588 0.05153007 0.011796298 0.017445257 -0.019304683 -0.053781014 -0.030511335 0.05981043
00000000: fe9e a6bc 5c98 d4bb b2ae 8f3c 3d8a 503c
00000010: 7f89 b3bc 2ccc 0bbd c972 f33b 5135 623c
00000020: 12bb 58bc d441 1abc e692 a03c 405f 6abc
00000030: 744e bb3d d795 0d3d 4001 28bd 3ba9 9f3d
00000040: c9d0 30bc 502a c83d 76ae 3f3d 41a1 f6bc
00000050: b655 a83d e8c7 8ebc 3233 83bc ea37 b53a
00000060: 80c2 2b3c e20f a4bc 6dbb 113d 9896 eb3a
00000070: 25f6 a63d 48a1 9db9 7229 0c3d 719a 83bc
00000080: 6f2a b8bd fce5 69bd a6f9 1dbc 48a8 0b3c
00000090: 9127 333d c546 36bc 2a92 3b3b c022 ca3c
000000a0: ad08 10bd e248 0dba 8d12 0fbd e587 63bd
000000b0: 6c0e e1bc 644f 89bc ca10 463d 81ab fc3b
000000c0: 103d c9bc 97b2 193d db42 5abc 646a 163d
000000d0: 33f3 92bc a219 9bbd dd6c a03c e957 aa3d
000000e0: f74a 99bb 7da9 7bbd fa18 3bbc b4ba dd3c
000000f0: d1a8 1abc 6758 48bd ba67 223d b07f 233d
00000100: 75de e8bc 3532 b93c fade cdba 983d fb3b
00000110: 66cf d73d 8239 50bc bb29 a53d 2248 1bbd
00000120: dd1e 9f3d 56fb b83d 96af c43b 8c3d f8ba
00000130: 8857 073d cb8d 94bc 76ef 143d d608 76bd
00000140: 8936 df3b 72d1 f0bb 37f8 0cbc c176 71bc
00000150: 6930 64bb 76ea eebc 6d32 4a3d 190c 80bc
00000160: 8c02 00bd 12ad 6e3b 8c77 423d 1b96 753c
00000170: cdbb 713d cfb9 ffbc 2187 5f3c f47b 263c
00000180: 98b4 8cbb 57d4 133a 0b69 bb3d c519 80bd
00000190: 4241 013c 956f 1e3d b426 543c 43ea 373d
000001a0: f23c 813d 640a a7bd b0f6 3b3d 98c6 6a3d
000001b0: f32a 243d 57c0 cb3c 8f9f 9d3d 33c6 ac3b
000001c0: b9e2 d03c e0f2 c13c 21c8 353d d4a4 263d
000001d0: 0a25 0c3c ab34 173c c2c8 0a3e 3ae8 bcbb
000001e0: d13e 243e 3211 533d 4345 413c 5be9 8e3c
000001f0: db24 9ebc 7b49 5cbd e8f2 f9bc c8fb 743d

conv2d_2/kernel:0 f4 [128, 64, 1, 1]
-0.046834517 -0.053504758 -0.06927928 -0.21250698 0.26209295 0.11559629 -0.1707364 0.042051576
-0.13205224 0.22021723 -0.015812851 0.057699345 -0.13533024 -0.19262908 -0.091151424 0.026690492
0.18034707 0.12061195 -0.042645495 -0.14374195 -0.051697325 -0.08006139 0.13158704 -0.20003718
0.12959985 -0.2166824 -0.2409273 -0.059983402 0.20877802 -0.2085523 -0.24526218 -0.055839572
0.058062226 -0.08793114 0.05063811 0.1502643 -0.1620946 0.008200799 -0.09054145 -0.13784072
-0.14017716 -0.23686084 -0.1122535 0.14401355 0.044941317 -0.00452994 0.26992273 0.14794913
-0.06772946 -0.101041876 0.1407677 0.24427608 0.097648256 -0.040016346 -0.22572297 -0.265867
-0.106336616 0.08464767 -0.03256841 -0.1828637 0.19277221 0.051990494 0.07558341 -0.106783055
0.16412917 -0.07387499 -0.082484625 -0.008561957 0.0376336 -0.10776433 -0.07899215 -0.23497543
0.008457128 0.23258778 -0.054203644 0.12733239 -0.16145617 0.18913688 0.09988488 -0.2352338
-0.01641966 0.064107634 -0.25854346 -0.20563161 -0.047358442 0.049869243 0.013488182 0.0008552883
-0.07611315 -0.030523147 0.002689395 0.2627809 0.28367922 -0.049931247 -0.13595255 -0.14300385
-0.03669688 -0.255643 -0.047045592 -0.029269999 -0.010379351 0.07186609 -0.05069782 0.12697014
-0.18650098 -0.014148941 0.00030338575 0.1342771 0.10254255 0.03273936 -0.055766057 -0.03059504
0.057079833 -0.103398606 -0.12394759 -0.03494499 -0.064534746 -0.046362042 -0.09991302 0.0024878862
0.10048398 0.099212214 0.23480134 -0.01264811 -0.14192985 0.2065698 -0.04743015 -0.23573409
0.050504684 -0.07154284 0.15924491 0.14620395 0.242327 -0.07215685 0.017873934 0.018847652
0.06035705 -0.11538563 -0.05394974 -0.08271578 0.08082938 -0.123054706 0.06412545 -0.18667118
-0.25210693 -0.08750744 -0.13298187 0.36011907 -0.23279352 0.05431548 -0.21463674 -0.05098483
-0.066159554 0.06942218 -0.15641107 -0.23562483 0.15249525 -0.02973192 0.16721287 -0.04506263
-7.2109397e-06 0.015533921 -0.17892122 0.08140122 -0.24451698 0.08959741 0.060630634 0.011897769
-0.02342246 0.22274707 0.10055491 0.12944405 -0.1397168 -0.10928643 -0.14769562 -0.11012297
0.0088872695 0.04622868 -0.07951479 -0.008282673 -0.026723022 -0.09922476 -0.103992864 0.19572142
0.1400623 -0.074057914 -0.055294707 0.17847419 0.119660854 -0.023476781 -0.24000415 -0.03850094
0.06366523 -0.234105 -0.012851199 0.1987237 0.16239607 -0.10323886 -0.13181318 0.2502501
-0.10095337 0.08473921 -0.1932885 0.14579596 -0.046056073 -0.23825951 -0.35174578 -0.11502702
0.037237156 -0.010944954 0.015749644 0.22694665 -0.23485056 0.12492862 -0.31599584 0.10540767
0.0027405985 0.10393095 0.06702389 -0.021305945 -0.064722866 -0.0028357685 0.086633794 -0.11519009
-0.15650912 0.12852502 -0.20828243 0.1815935 -0.089957476 -0.24544358 -0.047454998 -0.14976616
-0.17301045 -0.10277288 -0.01365961 0.06625732 -0.201888 -0.09833415 0.122002006 -0.034654323
-0.08023283 -0.03615689 -0.20379162 0.07609557 0.11944393 -0.03751604 -0.08657665 -0.065972775
-0.013980005 0.014697932 -0.017732276 0.17970464 0.08688761 -0.109018005 -0.11095674 0.031974018
00000000: 8dd5 3fbd ce27 5bbd 4ce2 8dbd 6e9b 59be
00000010: 0c31 863e bfbd ec3d 86d5 2ebe 463e 2c3d
00000020: b438 07be a080 613e f489 81bc 2656 6c3d
00000030: 0394 0abe 8f40 45be 99ad babd 05a6 da3c
00000040: e7ac 383e 6603 f73d 0bad 2ebd 1731 13be
00000050: 93c0 53bd 3af7 a3bd c1be 063e 8cd6 4cbe
00000060: d3b5 043e fee1 5dbe a5b5 76be 28b1 75bd
00000070: e8c9 553e bc8e 55be 0226 7bbe 09b8 64bd
00000080: a8d2 6d3d 3e15 b4bd e869 4f3d e2de 193e
00000090: 20fc 25be a55c 063c cc6d b9bd 1e26 0dbe
000000a0: 9a8a 0fbe a68b 72be 2ae5 e5bd 4a78 133e
000000b0: 6314 383d e46f 94bb 5033 8a3e fa7f 173e
000000c0: beb5 8abd 0bef cebd 6825 103e 8223 7a3e
000000d0: cffb c73d 2ee8 23bd ec23 67be b81f 88be
000000e0: 03c7 d9bd c25b ad3d 7466 05bd 9f40 3bbe
000000f0: 1466 453e fcf3 543d 7acb 9a3d 13b1 dabd
00000100: 7a11 283e c54b 97bd b3ed a8bd 7347 0cbc
00000110: b125 1a3d 8cb3 dcbd a3c6 a1bd 669d 70be
00000120: c48f 0a3c 7e2b 6e3e a404 5ebd 6c63 023e
00000130: c454 25be 19ad 413e 7290 cc3d 21e1 70be
00000140: 8682 86bc dd4a 833d cf5f 84be 1891 52be
00000150: edfa 41bd b143 4c3d 89fd 5c3c 6d35 603a
00000160: 36e1 9bbd ae0b fabc 9040 303b 388b 863e
00000170: 673e 913e b584 4cbd 2537 0bbe 9a6f 12be
00000180: 784f 16bd a4e3 82be e1b2 40bd a3c7 efbc
00000190: 270e 2abc 872e 933d 84a8 4fbd 7604 023e
000001a0: 1dfa 3ebe f6d0 67bc bf0f 9f39 f07f 093e
000001b0: d401 d23d b519 063d f36a 64bd 73a2 fabc
000001c0: 8bcc 693d a6c2 d3bd 3cd8 fdbd 7a22 0fbd
000001d0: cb2a 84bd 20e6 3dbd 339f ccbd ce0b 233b
000001e0: 8bca cd3d c62f cb3d c36f 703e 053a 4fbc
000001f0: 0f56 11be 0987 533e 1e46 42bd 4764 71be
00000200: 00de 4e3d 0d85 92bd 1911 233e 7db6 153e
00000210: 9224 783e f8c6 93bd 5b6c 923c 6466 9a3c
00000220: f438 773d 4d4f ecbd 67fa 5cbd e466 a9bd
00000230: e089 a53d 1b04 fcbd 3454 833d bb26 3fbe
00000240: 2914 81be 1a37 b3bd 662c 08be 8761 b83e
00000250: 6d61 6ebe e979 5e3d bcc9 5bbe 78d5 50bd
00000260: a97e 87bd 372d 8e3d 392a 20be a347 71be
00000270: b727 1c3e 5b90 f3bc da39 2b3e 9893 38bd
00000280: 80f5 f1b6 fd81 7e3c 2037 37be afb5 a63d
00000290: a962 7abe d97e b73d d457 783d dcee 423c
000002a0: 75e0 bfbc cf17 643e bcef cd3d fb8c 043e
000002b0: ec11 0fbe 90d1 dfbd 853d 17be 2788 e1bd
000002c0: e99b 113c 495a 3d3d a6d8 a2bd 0cb4 07bc
000002d0: 3dea dabc 5a36 cbbd 36fa d4bd 326b 483e
000002e0: 7e6c 0f3e adab 97bd b47c 62bd f0c1 363e
000002f0: c010 f53d 6152 c0bc a6c3 75be 29b3 1dbd
00000300: eb62 823d 39b9 6fbe d68d 52bc 3a7e 4b3e
00000310: 284b 263e e56e d3bd 09fa 06be c820 803e
00000320: a4c0 cebd c08b ad3d 6ced 45be 894b 153e
00000330: 4ba5 3cbd 4dfa 73be 0618 b4be 4993 ebbd
00000340: fd85 183d 7752 33bc 6605 813c b464 683e
00000350: aa7c 70be 94da ff3d 35ca a1be fadf d73d
00000360: 9d9b 333b c0d9 d43d d243 893d ce89 aebc
00000370: 6c8d 84bd 4dd8 39bb 0f6d b13d c8e8 ebbd
00000380: ed43 20be 109c 033e fd47 55be a5f3 393e
00000390: a03b b8bd 9055 7bbe 2c60 42bd 4d5c 19be
000003a0: a729 31be 967a d2bd 8fcc 5fbc ebb1 873d
000003b0: babb 4ebe 6a63 c9bd 30dc f93d b1f1 0dbd
000003c0: 1c51 a4bd 3f19 14bd c0ae 50be ffd7 9b3d
000003d0: 059f f43d 6baa 19bd 194f b1bd bc1c 87bd
000003e0: 640c 65bc 98cf 703c 4743 91bc 7e04 383e
000003f0: 22f2 b13d d544 dfbd 4a3d e3bd 30f7 023d

conv2d_2/bias:0 f4 [128]
0.024931114 -0.0062236497 -0.010200818 -0.009791107 0.014969103 0.054335363 0.005831712 -0.0025903936
0.031036748 -0.01251606 0.0035831814 0.00321842 0.21079226 -0.030910537 -0.05898263 1.9656307e-05
-0.050371576 0.07334533 0.06024406 -0.1091751 -0.06434555 -0.002200733 0.05213698 0.15290867
0.082198545 -0.036741633 0.19132419 0.06961302 0.034579325 -0.042217437 0.07707728 0.047400836
-0.052334275 0.05499244 0.020631045 0.009813077 0.0019339576 0.030435815 0.04048365 -0.059771992
0.07871817 -0.04093168 0.018756598 -0.06259908 -0.005122676 0.112640135 0.056686252 -0.048213687
-0.003027896 0.005581904 -0.015652923 -0.051107835 0.08616402 0.07881097 0.11398957 0.0943739
-0.0335324 0.018111007 -0.05644087 0.008193951 0.087139465 -0.04396754 0.04920187 -0.027432008
0.047303222 0.006280677 -0.02586507 0.09414036 0.050662298 -0.03421657 0.0028146466 0.121462844
-0.04612377 0.028887244 0.022567052 -0.04687092 0.005961814 -0.007819286 -0.005343764 -0.08853279
-0.06305671 0.05251479 0.2545161 0.0105095925 -0.029493336 0.055714488 0.037254717 0.074076355
-0.043845452 0.073146075 -0.065670915 0.07990336 0.003290913 -0.008253551 0.009835485 0.034271907
0.01674101 -0.018350577 -0.009570567 -0.05690947 0.06829932 -0.017990293 -0.014525521 0.026166651
-0.068532564 0.06369403 0.09977659 0.031044247 -0.047077663 0.12297207 0.05003146 0.018983835
-0.007905346 0.0046439497 -0.08949069 0.007965541 0.0075812247 0.019481419 0.07146341 -0.12448459
-0.0451773 0.02686661 -0.0933773 0.00274193 -0.035915177 -0.010589543 0.05446096 0.037046924
00000000: 563c cc3c c2ef cbbb 5521 27bc e16a 20bc
00000010: f840 753c c28e 5e3d f217 bf3b 98c3 29bb
00000020: c740 fe3c 2910 4dbc cfd3 6a3b 21ec 523b
00000030: edd9 573e 1838 fdbc c597 71bd 99e3 a437
00000040: 6d52 4ebd 1436 963d 7ac2 763d 3297 dfbd
00000050: 9ac7 83bd 2c3a 10bb 968d 553d 1794 1c3e
00000060: b657 a83d 657e 16bd 7dea 433e 4591 8e3d
00000070: 0da3 0d3d 31ec 2cbd b1da 9d3d 6127 423d
00000080: 775c 56bd c13f 613d 7002 a93c 07c7 203c
00000090: d97c fd3a 8854 f93c 2fd2 253d 7ad3 74bd
000000a0: fe36 a13d faa7 27bd 70a7 993c f233 80bd
000000b0: 1fdc a7bb dfaf e63d d82f 683d b77b 45bd
000000c0: aa6f 46bb 68e8 b63b 8f3a 80bc 7356 51bd
000000d0: c376 b03d a567 a13d 5d73 e93d 1a47 c13d
000000e0: 4559 09bd 895d 943c 8b2e 67bd ec3f 063c
000000f0: 2d76 b23d 4f17 34bd e687 493d 17b9 e0bc
00000100: 06c1 413d 23ce cd3b fce2 d3bc a9cc c03d
00000110: 4583 4f3d ad26 0cbd ef75 383b 83c1 f83d
00000120: 47ec 3cbd f1a4 ec3c 8ade b83c b9fb 3fbd
00000130: 525b c33b 761c 00bc be1a afbb ae50 b5bd
00000140: e023 81bd c019 573d ef4f 823e 6d30 2c3c
00000150: 029c f1bc e034 643d 6798 183d 58b5 973d
00000160: 4a97 33bd 9ccd 953d 797e 86bd 5fa4 a33d
00000170: 5cac 573b e739 07bc 0425 213c b360 0c3d
00000180: 7124 893c f353 96bc decd 1cbc e819 69bd
00000190: 84e0 8b3d 6160 93bc 73fc 6dbc 725b d63c
000001a0: cd5a 8cbd 0472 823d ab57 cc3d 8150 fe3c
000001b0: 82d4 40bd c8d8 fb3d caed 4c3d fd83 9b3c
000001c0: 6d85 01bc 462c 983b e546 b7bd e781 023c
000001d0: ec6b f83b 7f97 9f3c 695b 923d c7f1 febd
000001e0: d50b 39bd 5d17 dc3c 993c bfbd f4b1 333b
000001f0: cb1b 13bd c37f 2dbc 7512 5f3d 84be 173d

conv2d_1/kernel:0 f4 [64, 32, 3, 3]
-0.015699252 -0.043130536 0.0011749334 -0.23488207 -0.3342079 -0.13777284 -0.040809803 -0.016748408
-0.16440883 0.051303178 0.037426036 0.07898314 -0.02878795 0.009326028 0.06453179 0.05748373
-0.1035974 -0.17926592 0.017329266 0.02817974 0.048396956 -0.046290133 -0.0005671609 0.07550707
0.16135858 -0.09434302 -0.27512416 -0.011249782 0.09701885 0.020349655 -0.014925335 -0.078834146
0.049234122 -0.15774925 -0.20994335 -0.19881934 0.017280186 -0.011307892 0.09758942 -0.108419135
-0.063978605 -0.07068082 0.02036913 0.0661588 -0.1138718 0.0969413 -0.0038593938 -0.38172254
-0.08049153 -0.25253874 -0.21113294 0.07233475 0.06725605 0.13991065 -0.08728648 -0.18678923
-0.02222031 0.04992269 -0.17237018 -0.057890166 -0.012649512 -0.23569646 0.0916927 0.0028667331
0.058744766 -0.038632415 0.1034099 0.08255548 -0.23493615 0.030232446 0.071091086 0.25229976
-0.070787236 0.026071845 -0.10817383 0.021018706 0.044963177 -0.07822264 -0.03119544 -0.18083368
-0.37373126 0.016637197 0.09935291 0.050642714 -0.18301825 0.15760954 0.051642783 0.06365707
0.04925952 -0.12817791 0.07317161 0.0019578289 0.10598634 0.015542202 0.07146584 0.020084009
0.013929687 0.03446194 0.028340397 -0.057427175 0.021681523 0.07808742 -0.2877704 -0.08326888
0.058586985 0.1135893 0.019653792 -0.009700679 -0.019565178 0.08176114 0.1167696 0.045166705
0.014247325 -0.04359867 0.095004156 -0.1771398 -0.14915629 -0.1723989 0.047247116 0.10265888
-0.2129899 -0.17015482 -0.047473982 -0.11929237 -0.37494397 -0.064960465 -0.062786534 0.07820271
0.18814981 0.05117614 -0.014628964 0.0010030031 -0.11721945 -0.29166326 -0.21431987 0.03351918
0.060568955 0.008713348 -0.055606384 0.041422382 -0.0022712364 0.11780008 0.07476166 -0.117093645
0.03210666 0.11530657 0.14410715 0.03011545 0.016499868 0.20658006 -0.037055697 -0.0312655
-0.014555595 0.0067240614 0.01097384 0.12078255 -0.016367877 0.02481031 -0.012105925 -0.06393512
-0.06108635 -0.20050472 -0.04984758 -0.0045607626 -0.0027406802 -0.020914689 -0.00899532 0.17701584
-0.14136198 -0.05788798 0.013734783 0.06370389 0.041320655 -0.030617325 0.18323773 -0.071968436
0.039357718 0.07015416 0.1531639 0.15099156 -0.21598803 -0.3984112 -0.07421704 0.011652638
-0.14846645 -0.074450865 0.08047883 -0.1912464 0.092940055 -0.19649245 -0.07911123 0.02054722
0.003587745 -0.24439356 -0.07331792 0.07179464 -0.24984403 0.112645425 0.055005945 0.036441572
-0.1781797 0.028265307 0.03294019 0.016228288 0.02243952 -0.054558307 -0.13486783 0.11751444
0.022252908 -0.24410073 -0.063542426 -0.10046672 -0.16987467 0.04617885 0.002431787 0.19516954
0.04546095 -0.017432213 0.09809742 -0.025647761 -0.016643459 0.102955654 -0.07833949 -0.20168032
-0.10597043 -0.024314746 -0.09584904 -0.092008606 0.15555045 -0.036350556 -0.009897293 0.11156737
-0.036077507 0.06445414 0.057969946 0.06351552 -0.13268104 -0.05796065 0.059450872 0.13713233
-0.067512505 0.0415835 0.0021408268 0.047376752 0.009765012 -0.009222704 0.09340373 -0.058749508
-0.20147896 -0.09156763 0.055191144 0.12928884 -0.03400066 0.09092513 0.10853126 -0.09888391
00000000: b89b 80bc a5a9 30bd 3900 9a3a ed84 70be
00000010: 4c1d abbe 5314 0dbe 2e28 27bd f533 89bc
00000020: ca5a 28be 4823 523d 0b4c 193d eac1 a13d
00000030: b5d4 ebbc 32cc 183c 3e29 843d 0f74 6b3d
00000040: e02a d4bd 7c91 37be 1bf6 8d3c 33d9 e63c
00000050: e33b 463d b99a 3dbd 86ad 14ba 73a3 9a3d
00000060: 2f3b 253e ea36 c1bd 13dd 8cbe 0151 38bc
00000070: d2b1 c63d 52b4 a63c 6489 74bc cc73 a1bd
00000080: b8a9 493d 0589 21be 64fb 56be 4c97 4bbe
00000090: 2d8f 8d3c bd44 39bc f6dc c73d da0a debd
000000a0: 3707 83bd 1bc1 90bd 29dd a63c 447e 873d
000000b0: 9e35 e9bd 2989 c63d e2ed 7cbb 2371 c3be
000000c0: bed8 a4bd c24c 81be 3c33 58be 3e24 943d
000000d0: 8abd 893d bd44 0f3e 41c3 b2bd ad45 3fbe
000000e0: 5e07 b6bc bc7b 4c3d cf81 30be 3d1e 6dbd
000000f0: e63f 4fbc 6a5a 71be 62c9 bb3d cddf 3b3b
00000100: 5a9e 703d 063d 1ebd 92c8 d33d d912 a93d
00000110: 1a93 70be 09aa f73c 3498 913d 6f2d 813e
00000120: e6f8 90bd 9f94 d53c 3e8a ddbd 6c2f ac3c
00000130: 4f2b 383d 3133 a0bd 948d ffbc 772c 39be
00000140: b459 bfbe bb4a 883c 8a79 cb3d bc6e 4f3d
00000150: 2369 3bbe 6564 213e 6287 533d a35e 823d
00000160: 5ac4 493d 1241 03be ffda 953d eb4e 003b
00000170: 5e0f d93d b8a4 7e3c af5c 923d 3887 a43c
00000180: 5839 643c f727 0d3d 1f2a e83c c238 6bbd
00000190: 739d b13c 4cec 9f3d a456 93be e088 aabd
000001a0: e8f8 6f3d 82a1 e83d fd00 a13c 99ef 1ebc
000001b0: 2747 a0bc 6272 a73d e624 ef3d b900 393d
000001c0: 9d6d 693c 8594 32bd 8a91 c23d 2364 35be
000001d0: 6dbc 18be 5689 30be 3186 413d d23e d23d
000001e0: 061a 5abe 113d 2ebe 1474 42bd 8f4f f4bd
000001f0: a8f8 bfbe fe09 85bd 3a96 80bd be28 a03d
00000200: 58aa 403e 129e 513d 52ae 6fbc 3377 833a
00000210: c010 f0bd e354 95be ab76 5bbe 684b 093d
00000220: 2717 783d 6ec2 0e3c 85c3 63bd 84aa 293d
00000230: 06d9 14bb 2b41 f13d a41c 993d cbce efbd
00000240: 4682 033d da25 ec3d d390 133e adb4 f63c
00000250: bb2a 873c b989 533e b7c7 17bd 4110 00bd
00000260: 977a 6ebc 8455 dc3b 9fcb 333c d75c f73d
00000270: ed15 86bc fe3e cb3c ee57 46bc 6bf0 82bd
00000280: ae35 7abd 1c51 4dbe fa2c 4cbd 7372 95bb
00000290: fc9c 33bb 4855 abbc 1b61 13bc a443 353e
000002a0: 32c1 10be f21b 6dbd db07 613c 2f77 823d
000002b0: d93f 293d 2fd1 fabc aca2 3b3e 3064 93bd
000002c0: 8f35 213d fcac 8f3d ffd6 1c3e 889d 1a3e
000002d0: f72b 5dbe 8efc cbbe 1aff 97bd b5ea 3e3c
000002e0: 9707 18be b279 98bd 16d2 a43d 19d6 43be
000002f0: 5b57 be3d 5135 49be 1205 a2bd a552 a83c
00000300: 5f20 6b3b 4e42 7abe b527 96bd 1109 933d
00000310: 1dd7 7fbe a5b2 e63d ea4d 613d c243 153d
00000320: bd74 36be a58c e73c 4bec 063d 30f1 843c
00000330: 16d3 b73c 8878 5fbd cb1a 0abe 69ab f03d
00000340: bb4b b63c 8bf5 79be 8822 82bd 7fc1 cdbd
00000350: a0f3 2dbe 0926 3d3d 9e5e 1f3b 86da 473e
00000360: 4335 3a3d 00ce 8ebc 4de7 c83d 411b d2bc
00000370: dd57 88bc 6ada d23d 7470 a0bd 4985 4ebe
00000380: 0607 d9bd b82f c7bc 804c c4bd 026f bcbd
00000390: 9e48 1f3e 52e4 14bd 4128 22bc 6f7d e43d
000003a0: 02c6 13bd 8800 843d e571 6d3d 6d14 823d
000003b0: 8add 07be 2668 6dbd c282 733d 6b6c 0c3e
000003c0: ff43 8abd 7653 2a3d 1d4d 0c3b 200e 423d
000003d0: 6efd 1f3c d31a 17bc 744a bf3d 53a3 70bd
000003e0: 8050 4ebe cf87 bbbd 1c10 623d 4b64 043e
000003f0: 4744 0bbd f436 ba3d a345 de3d a683 cabd

conv2d_1/bias:0 f4 [64]
-0.108778566 0.03702188 -0.036625154 0.007790035 0.0138880275 -0.010499919 -0.15925737 0.03752781
-0.10110006 0.004201822 -0.05942759 -0.031636946 0.09873708 -0.099643484 0.055830225 0.027269736
0.11034646 0.09221533 -0.08571163 0.05951748 -0.045654308 0.055055495 0.02030241 0.01156695
-0.09710579 -0.053035807 -0.004853627 -0.13290049 0.021978624 -0.1606682 0.014288883 -0.082109734
0.079954244 -0.12067337 0.113698676 0.03105084 0.051916335 -0.060399167 0.06045742 -0.11331095
-0.11897488 0.018590892 -0.07132904 0.016643126 0.043399405 0.07088242 0.078773044 -0.058736287
0.06591456 0.019926812 -0.047342207 -0.036979504 -0.034024965 -0.0006952756 0.021198686 -0.087525524
0.07013775 -0.05271762 -0.08607583 0.064722344 -0.0046874057 0.0525546 0.012594117 0.12194063
00000000: 4cc7 debd 41a4 173d 4204 16bd 8d43 ff3b
00000010: 9c8a 633c da07 2cbc 5d14 23be c3b6 193d
00000020: 8c0d cfbd 70af 893b 586a 73bd be95 01bd
00000030: ab36 ca3d e211 ccbd 3cae 643d c864 df3c
00000040: 53fd e13d 64db bc3d 9489 afbd 9ac8 733d
00000050: 0300 3bbd df81 613d 3d51 a63c 4e83 3d3c
00000060: 67df c6bd 133c 59bd 2d0b 9fbb 1117 08be
00000070: 840c b43c 3486 24be eb1b 6a3c 2629 a8bd
00000080: 0dbf a33d 9a23 f7bd dada e83d 555e fe3c
00000090: 39a6 543d 1e65 77bd 33a2 773d 920f e8bd
000000a0: 1aa9 f3bd ed4b 983c f614 92bd 2a57 883c
000000b0: 93c3 313d cd2a 913d c353 a13d 7695 70bd
000000c0: 36fe 863d 8e3d a33c e7e9 41bd d277 17bd
000000d0: c35d 0bbd 2843 36ba dea8 ad3c 9540 b3bd
000000e0: 61a4 8f3d 6eee 57bd 8648 b0bd 268d 843d
000000f0: cf98 99bb 7e43 573d 8e57 4e3c 02bc f93d

conv2d/kernel:0 f4 [32, 1, 5, 5]
-0.28964615 -0.2675151 -0.14402996 -0.1326071 0.036156174 -0.10856821 -0.20971738 -0.38920486
-0.36908737 -0.28592217 0.11376833 0.07364866 0.062094986 -0.020298384 -0.2772797 -0.038927503
0.10189892 0.009591997 -0.020754008 -0.03895068 0.08282434 0.13682835 0.110088944 0.17480165
0.1372908 0.04620353 -0.009712982 -0.046606556 -0.075671785 0.12671892 -0.017363142 -0.05871109
-0.0403458 -0.08379326 -0.12322928 -0.011232663 0.08612002 0.19368193 -0.15351303 -0.35196295
-0.035821572 -0.07426408 0.2635514 0.07824801 -0.18515123 -0.04956882 -0.16196723 0.10693201
0.21558975 0.13440916 -0.035251692 -0.035161596 -0.09974452 0.026422784 0.08876874 0.035149302
-0.016543886 0.006797196 -0.22805436 -0.34027752 -0.004415658 0.13578478 0.13640961 -0.046334263
-0.1702778 -0.02944891 -0.06600649 0.15383056 0.13780433 0.10248678 -0.023080835 -0.08120006
-0.002762121 0.10173948 0.17556414 0.023859369 0.020362562 0.10548146 0.06681972 0.039729446
0.10002704 0.10329423 0.07069957 0.083124824 0.13751917 -0.13652933 -0.13110062 -0.05897768
0.05280584 0.14426196 -0.16402541 -0.24965775 -0.17385402 -0.19187272 0.048436694 -0.04060392
-0.13419797 -0.2659431 -0.30315712 -0.19789654 0.051433086 0.029101955 -0.09191555 0.016285872
0.058561314 -0.030586526 -0.042291626 -0.122799486 -0.23132224 -0.23526038 0.07484573 0.017076734
0.07218641 -0.026738707 -0.007252641 0.042275246 0.119070984 0.20264563 0.18909673 0.16478136
0.05224727 -0.119431525 -0.0979767 0.009909648 0.02352696 -0.050332997 0.08140531 0.11490053
0.026457004 -0.1266736 -0.027695777 -0.09627211 -0.40219638 -0.33743083 -0.28331396 -0.07279677
-0.35267723 -0.18723518 -0.020973586 -0.052173026 -0.27626136 -0.08683258 -0.03263455 0.098204136
0.1083467 -0.16084762 -0.0652045 0.20987667 0.15154935 0.2040179 -0.020126106 0.03675903
0.08395582 -0.038584143 0.00839239 0.052092183 0.06435711 0.08126356 -0.063922964 -0.18859382
0.0010408697 0.1128142 0.038539477 -0.05826924 -0.3661601 0.01706227 0.1105876 0.05352427
-0.10389132 -0.12252426 0.061317515 0.10028929 -0.05324591 -0.16299315 -0.15876786 0.1415638
-0.059084054 -0.18057802 -0.07705043 0.06403435 -0.11823908 -0.21883899 -0.01883378 0.19781642
0.16493821 0.06604495 0.116495974 0.2620373 0.24363236 -0.030305853 0.058920886 0.14338991
0.04763646 -0.15135665 -0.19583088 -0.04456885 -0.15557757 -0.17729804 -0.076289915 -0.12791416
-0.053204037 0.054834314 0.063631006 0.050949283 0.09638307 0.051768534 0.115810625 0.104437456
0.096887566 0.051376414 -0.2104902 0.023231959 0.16198382 0.11550017 0.041816257 -0.44938955
-0.260238 -0.13899544 -0.08385158 -0.3845174 -0.18194549 -0.49266425 -0.54863065 -0.3973268
-0.24011086 -0.09633744 -0.01122798 0.060355615 0.17340064 0.18585889 0.04376432 -0.100125715
-0.23649067 -0.07527301 0.08356788 0.030502733 0.07427103 -0.25431612 -0.37139452 -0.22418824
-0.02086778 0.12306545 0.012668399 -0.01773482 -0.11743152 -0.0143200485 0.078781985 0.23379055
0.15939645 0.08960812 -0.13085197 -0.21636303 -0.108027525 0.038181297 0.07523376 -0.09273246
00000000: 804c 94be bdf7 88be 977c 13be 28ca 07be
00000010: 7f18 143d 0259 debd 27c0 56be dc45 c7be
00000020: 05f9 bcbe 6464 92be 5fff e83d 1cd5 963d
00000030: 5057 7e3d cc48 a6bc 9bf7 8dbe 7272 1fbd
00000040: 62b0 d03d c027 1d3c 4f04 aabc c08a 1fbd
00000050: cf9f a93d bb1c 0c3e 5076 e13d 34ff 323e
00000060: f695 0c3e ea3f 3d3d 3323 1fbc 84e6 3ebd
00000070: cff9 9abd 9bc2 013e 263d 8ebc 0a7b 70bd
00000080: a341 25bd cd9b abbd a25f fcbd 3409 38bc
00000090: b15f b03d 8e54 463e 8532 1dbe 7d34 b4be
000000a0: a4b9 12bd c417 98bd 36f0 863e 7e40 a03d
000000b0: 4998 3dbe ad08 4bbd bdda 25be 2bff da3d
000000c0: 8fc3 5c3e 8ea2 093e 1464 10bd 9b05 10bd
000000d0: db46 ccbd 9874 d83c 63cc b53d b7f8 0f3d
000000e0: 0b87 87bc 03bb de3b 1587 69be db38 aebe
000000f0: 39b1 90bb 2a0b 0b3e f6ae 0b3e ffc8 3dbd
00000100: 4e5d 2ebe d73e f1bc 692e 87bd c285 1d3e
00000110: 941c 0d3e 97e4 d13d 0514 bdbc 384c a6bd
00000120: b304 35bb ca5c d03d 16c7 333e b974 c33c
00000130: 63cf a63c aa06 d83d c7d8 883d 58bb 223d
00000140: fada cc3d ed8b d33d f0ca 903d 593d aa3d
00000150: d3d1 0c3e 58ce 0bbe 3e3f 06be 9492 71bd
00000160: f04a 583d 68b9 133e 47f6 27be 48a6 7fbe
00000170: ca06 32be 487a 44be 8e65 463d 4c50 26bd
00000180: 316b 09be b229 88be 6937 9bbe 64a5 4abe
00000190: 80ab 523d 3967 ee3c 383e bcbd f369 853c
000001a0: fddd 6f3d 9890 fabc fc39 2dbd 4c7e fbbd
000001b0: bddf 6cbe 19e8 70be b848 993d 82e4 8b3c
000001c0: 78d6 933d 220b dbbc 90a7 edbb cf28 2d3d
000001d0: 7ddb f33d 5682 4f3e 93a2 413e 72bc 283e
000001e0: 3c01 563d 8498 f4bd 02a8 c8bd 145c 223c
000001f0: 9cbb c03c f929 4ebd d4b7 a63d f850 eb3d
00000200: 5cbc d83c b9b6 01be 41e2 e2bc 502a c5bd
00000210: afec cdbe bcc3 acbe 870e 91be 7916 95bd
00000220: 1c92 b4be 94ba 3fbe ccd0 abbc 62b3 55bd
00000230: 2172 8dbe 48d5 b1bd ceab 05bd 401f c93d
00000240: e0e4 dd3d 3db5 24be f089 85bd e9e9 563e
00000250: c12f 1b3e 12ea 503e 81df a4bc a390 163d
00000260: 07f1 ab3d 680a 1ebd 3c80 093c 9d5e 553d
00000270: a9cd 833d 826d a63d 0bea 82bd bd1e 41be
00000280: cb6d 883a 220b e73d 92db 1d3d baab 6ebd
00000290: 5679 bbbe 2cc6 8b3c c07b e23d 443c 5b3d
000002a0: f9c4 d4bd 00ee fabd 1328 7b3d 7964 cd3d
000002b0: 6218 5abd ade7 26be 0b94 22be 1af6 103e
000002c0: 1f02 72bd 72e9 38be 9ecc 9dbd 7124 833d
000002d0: 5527 f2bd 5417 60be 4d49 9abc 6390 4a3e
000002e0: 90e5 283e 9342 873d 7195 ee3d c129 863e
000002f0: c37a 793e fb43 f8bc 0757 713d ced4 123e
00000300: 731e 433d 3dfd 1abe e487 48be d48d 36bd
00000310: ba4f 1fbe 9e8d 35be e33d 9cbd eefb 02be
00000320: 7aec 59bd f299 603d f950 823d 32b0 503d
00000330: 7d64 c53d 3e0b 543d 1f2e ed3d 4ee3 d53d
00000340: fd6c c63d 1370 523d be8a 57be f350 be3c
00000350: 16df 253e 5a8b ec3d 8647 2b3d 6316 e6be
00000360: ea3d 85be d254 0ebe 61ba abbd 77df c4be
00000370: eb4f 3abe 7d3e fcbe 0f73 0cbf 6b6e cbbe
00000380: 9fdf 75be 904c c5bd 90f5 37bc 7337 773d
00000390: f08f 313e cb51 3e3e 3742 333d b60e cdbd
000003a0: 9c2a 72be bc28 9abd a325 ab3d dee0 f93c
000003b0: 691b 983d b935 82be 6c27 bebe 9a91 65be
000003c0: e8f2 aabc bd09 fc3d 1e8f 4f3c 9d48 91bc
000003d0: f07f f0bd a39e 6abc 7358 a13d ca66 6f3e
000003e0: d338 233e 7684 b73d 0ffe 05be 458e 5dbe
000003f0: 893d ddbd fe63 1c3d 2814 9a3d 84ea bdbd

conv2d/bias:0 f4 [32]
0.027784469 -0.092597306 -0.099976 0.008789892 -0.11604599 -0.015827661 -0.072196215 -0.13885911
0.07393795 -0.09139587 -0.08587121 -0.1408917 -0.114950456 0.027364062 -0.026323495 -0.14204405
-0.20718051 -0.16767009 -0.22459093 -0.14128461 0.055912107 -0.10944481 -0.027418135 -0.063312896
-0.118706435 -0.020854179 -0.0729024 -0.18291955 -0.17780235 -0.20587865 -0.21539882 0.014248385
00000000: 419c e33c a8a3 bdbd 38c0 ccbd 7b03 103c
00000010: 85a9 edbd 03a9 81bc 9cdb 93bd 1531 0ebe
00000020: c86c 973d c22d bbbd 3fdd afbd ea45 10be
00000030: 256b ebbd 992a e03c 5fa4 d7bc ff73 11be
00000040: 2127 54be b5b1 2bbe 2afb 65be eaac 10be
00000050: 1804 653d 9a24 e0bd ff9b e0bc 31aa 81bd
00000060: 5c1c f3bd 62d6 aabc da4d 95bd 434f 3bbe
00000070: d211 36be dad1 52be 8291 5cbe 0f72 693c
