ios/MNIST/mnist.tflite (tflite, 106256 bytes, 10 tensors)

sequential/conv2d_2/BiasAdd;sequential/conv2d_2/Conv2D;sequential/conv2d_2/BiasAdd/ReadVariableOp/resource f4 [128]
00000000: 563c cc3c c2ef cbbb 5521 27bc e16a 20bc
00000010: f840 753c c28e 5e3d f217 bf3b 98c3 29bb
00000020: c740 fe3c 2910 4dbc cfd3 6a3b 21ec 523b
00000030: edd9 573e 1838 fdbc c597 71bd 99e3 a437
00000040: 6d52 4ebd 1436 963d 7ac2 763d 3297 dfbd
00000050: 9ac7 83bd 2c3a 10bb 968d 553d 1794 1c3e
00000060: b657 a83d 657e 16bd 7dea 433e 4591 8e3d
00000070: 0da3 0d3d 31ec 2cbd b1da 9d3d 6127 423d
00000080: 775c 56bd c13f 613d 7002 a93c 07c7 203c
00000090: d97c fd3a 8854 f93c 2fd2 253d 7ad3 74bd
000000a0: fe36 a13d faa7 27bd 70a7 993c f233 80bd
000000b0: 1fdc a7bb dfaf e63d d82f 683d b77b 45bd
000000c0: aa6f 46bb 68e8 b63b 8f3a 80bc 7356 51bd
000000d0: c376 b03d a567 a13d 5d73 e93d 1a47 c13d
000000e0: 4559 09bd 895d 943c 8b2e 67bd ec3f 063c
000000f0: 2d76 b23d 4f17 34bd e687 493d 17b9 e0bc
00000100: 06c1 413d 23ce cd3b fce2 d3bc a9cc c03d
00000110: 4583 4f3d ad26 0cbd ef75 383b 83c1 f83d
00000120: 47ec 3cbd f1a4 ec3c 8ade b83c b9fb 3fbd
00000130: 525b c33b 761c 00bc be1a afbb ae50 b5bd
00000140: e023 81bd c019 573d ef4f 823e 6d30 2c3c
00000150: 029c f1bc e034 643d 6798 183d 58b5 973d
00000160: 4a97 33bd 9ccd 953d 797e 86bd 5fa4 a33d
00000170: 5cac 573b e739 07bc 0425 213c b360 0c3d
00000180: 7124 893c f353 96bc decd 1cbc e819 69bd
00000190: 84e0 8b3d 6160 93bc 73fc 6dbc 725b d63c
000001a0: cd5a 8cbd 0472 823d ab57 cc3d 8150 fe3c
000001b0: 82d4 40bd c8d8 fb3d caed 4c3d fd83 9b3c
000001c0: 6d85 01bc 462c 983b e546 b7bd e781 023c
000001d0: ec6b f83b 7f97 9f3c 695b 923d c7f1 febd
000001e0: d50b 39bd 5d17 dc3c 993c bfbd f4b1 333b
000001f0: cb1b 13bd c37f 2dbc 7512 5f3d 84be 173d
0.024931114 -0.0062236497 -0.010200818 -0.009791107 0.014969103 0.054335363 0.005831712 -0.0025903936
0.031036748 -0.01251606 0.0035831814 0.00321842 0.21079226 -0.030910537 -0.05898263 1.9656307e-05
-0.050371576 0.07334533 0.06024406 -0.1091751 -0.06434555 -0.002200733 0.05213698 0.15290867
0.082198545 -0.036741633 0.19132419 0.06961302 0.034579325 -0.042217437 0.07707728 0.047400836
-0.052334275 0.05499244 0.020631045 0.009813077 0.0019339576 0.030435815 0.04048365 -0.059771992
0.07871817 -0.04093168 0.018756598 -0.06259908 -0.005122676 0.112640135 0.056686252 -0.048213687
-0.003027896 0.005581904 -0.015652923 -0.051107835 0.08616402 0.07881097 0.11398957 0.0943739
-0.0335324 0.018111007 -0.05644087 0.008193951 0.087139465 -0.04396754 0.04920187 -0.027432008
0.047303222 0.006280677 -0.02586507 0.09414036 0.050662298 -0.03421657 0.0028146466 0.121462844
-0.04612377 0.028887244 0.022567052 -0.04687092 0.005961814 -0.007819286 -0.005343764 -0.08853279
-0.06305671 0.05251479 0.2545161 0.0105095925 -0.029493336 0.055714488 0.037254717 0.074076355
-0.043845452 0.073146075 -0.065670915 0.07990336 0.003290913 -0.008253551 0.009835485 0.034271907
0.01674101 -0.018350577 -0.009570567 -0.05690947 0.06829932 -0.017990293 -0.014525521 0.026166651
-0.068532564 0.06369403 0.09977659 0.031044247 -0.047077663 0.12297207 0.05003146 0.018983835
-0.007905346 0.0046439497 -0.08949069 0.007965541 0.0075812247 0.019481419 0.07146341 -0.12448459
-0.0451773 0.02686661 -0.0933773 0.00274193 -0.035915177 -0.010589543 0.05446096 0.037046924

sequential/conv2d_1/BiasAdd;sequential/conv2d_1/Conv2D;sequential/conv2d_1/BiasAdd/ReadVariableOp/resource f4 [64]
00000000: 4cc7 debd 41a4 173d 4204 16bd 8d43 ff3b
00000010: 9c8a 633c da07 2cbc 5d14 23be c3b6 193d
00000020: 8c0d cfbd 70af 893b 586a 73bd be95 01bd
00000030: ab36 ca3d e211 ccbd 3cae 643d c864 df3c
00000040: 53fd e13d 64db bc3d 9489 afbd 9ac8 733d
00000050: 0300 3bbd df81 613d 3d51 a63c 4e83 3d3c
00000060: 67df c6bd 133c 59bd 2d0b 9fbb 1117 08be
00000070: 840c b43c 3486 24be eb1b 6a3c 2629 a8bd
00000080: 0dbf a33d 9a23 f7bd dada e83d 555e fe3c
00000090: 39a6 543d 1e65 77bd 33a2 773d 920f e8bd
000000a0: 1aa9 f3bd ed4b 983c f614 92bd 2a57 883c
000000b0: 93c3 313d cd2a 913d c353 a13d 7695 70bd
000000c0: 36fe 863d 8e3d a33c e7e9 41bd d277 17bd
000000d0: c35d 0bbd 2843 36ba dea8 ad3c 9540 b3bd
000000e0: 61a4 8f3d 6eee 57bd 8648 b0bd 268d 843d
000000f0: cf98 99bb 7e43 573d 8e57 4e3c 02bc f93d
-0.108778566 0.03702188 -0.036625154 0.007790035 0.0138880275 -0.010499919 -0.15925737 0.03752781
-0.10110006 0.004201822 -0.05942759 -0.031636946 0.09873708 -0.099643484 0.055830225 0.027269736
0.11034646 0.09221533 -0.08571163 0.05951748 -0.045654308 0.055055495 0.02030241 0.01156695
-0.09710579 -0.053035807 -0.004853627 -0.13290049 0.021978624 -0.1606682 0.014288883 -0.082109734
0.079954244 -0.12067337 0.113698676 0.03105084 0.051916335 -0.060399167 0.06045742 -0.11331095
-0.11897488 0.018590892 -0.07132904 0.016643126 0.043399405 0.07088242 0.078773044 -0.058736287
0.06591456 0.019926812 -0.047342207 -0.036979504 -0.034024965 -0.0006952756 0.021198686 -0.087525524
0.07013775 -0.05271762 -0.08607583 0.064722344 -0.0046874057 0.0525546 0.012594117 0.12194063

sequential/conv2d/BiasAdd;sequential/conv2d/Conv2D;sequential/conv2d/BiasAdd/ReadVariableOp/resource f4 [32]
00000000: 419c e33c a8a3 bdbd 38c0 ccbd 7b03 103c
00000010: 85a9 edbd 03a9 81bc 9cdb 93bd 1531 0ebe
00000020: c86c 973d c22d bbbd 3fdd afbd ea45 10be
00000030: 256b ebbd 992a e03c 5fa4 d7bc ff73 11be
00000040: 2127 54be b5b1 2bbe 2afb 65be eaac 10be
00000050: 1804 653d 9a24 e0bd ff9b e0bc 31aa 81bd
00000060: 5c1c f3bd 62d6 aabc da4d 95bd 434f 3bbe
00000070: d211 36be dad1 52be 8291 5cbe 0f72 693c
0.027784469 -0.092597306 -0.099976 0.008789892 -0.11604599 -0.015827661 -0.072196215 -0.13885911
0.07393795 -0.09139587 -0.08587121 -0.1408917 -0.114950456 0.027364062 -0.026323495 -0.14204405
-0.20718051 -0.16767009 -0.22459093 -0.14128461 0.055912107 -0.10944481 -0.027418135 -0.063312896
-0.118706435 -0.020854179 -0.0729024 -0.18291955 -0.17780235 -0.20587865 -0.21539882 0.014248385

sequential/conv2d_2/Conv2D i1 [128, 1, 1, 64]
00000000: eae7 df9c 7b36 b014 c268 f91b c0a5 d50d
00000010: 5539 ecbc e8da 3ea2 3d9a 8fe4 629e 8de6
00000020: 1bd7 1847 b404 d5bf be91 cb44 15fe 7f46
00000030: e0d0 4273 2eed 9683 ce28 f1aa 5b18 24ce
00000040: 49df dbfc 11d0 dd97 0468 e839 b855 2d97
00000050: f91d 8ca4 eb16 0600 def2 0176 7fea c3c0
00000060: f08e ebf3 fb20 e939 adfa 003c 2e0f e7f2
00000070: 1ad2 c9f0 e3eb d301 2d2c 69fa c05c eb96
00000080: 12e7 3834 55e7 0607 15d7 ede3 1dd5 17be
00000090: a7e1 d17f ae13 b4ee e918 c9ad 36f6 3bf0
000000a0: 0005 c11d aa20 1504 f84f 232e cfd9 ccd9
000000b0: 0310 e4fd f7dd db45 31e6 ec3f 2af8 abf2
000000c0: 17ab fb48 3bdb d05a dc1f ba35 efaa 81d6
000000d0: 0dfc 0652 ab2d 8e26 0126 18f8 e9ff 1fd6
000000e0: c72e b542 e0a7 efca c2db fb18 b7dc 2cf3
000000f0: e3f3 b61b 2bf2 e1e8 fb05 fa41 1fd9 d80c
-22 -25 -33 -100 123 54 -80 20
-62 104 -7 27 -64 -91 -43 13
85 57 -20 -68 -24 -38 62 -94
61 -102 -113 -28 98 -98 -115 -26
27 -41 24 71 -76 4 -43 -65
-66 -111 -53 68 21 -2 127 70
-32 -48 66 115 46 -19 -106 -125
-50 40 -15 -86 91 24 36 -50
73 -33 -37 -4 17 -48 -35 -105
4 104 -24 57 -72 85 45 -105
-7 29 -116 -92 -21 22 6 0
-34 -14 1 118 127 -22 -61 -64
-16 -114 -21 -13 -5 32 -23 57
-83 -6 0 60 46 15 -25 -14
26 -46 -55 -16 -29 -21 -45 1
45 44 105 -6 -64 92 -21 -106
18 -25 56 52 85 -25 6 7
21 -41 -19 -29 29 -43 23 -66
-89 -31 -47 127 -82 19 -76 -18
-23 24 -55 -83 54 -10 59 -16
0 5 -63 29 -86 32 21 4
-8 79 35 46 -49 -39 -52 -39
3 16 -28 -3 -9 -35 -37 69
49 -26 -20 63 42 -8 -85 -14
23 -85 -5 72 59 -37 -48 90
-36 31 -70 53 -17 -86 -127 -42
13 -4 6 82 -85 45 -114 38
1 38 24 -8 -23 -1 31 -42
-57 46 -75 66 -32 -89 -17 -54
-62 -37 -5 24 -73 -36 44 -13
-29 -13 -74 27 43 -14 -31 -24
-5 5 -6 65 31 -39 -40 12

sequential/conv2d_1/Conv2D i1 [64, 3, 3, 32]
00000000: fb10 06fc 061f e401 e905 17ee fac9 ec0b
00000010: 0a02 f014 bbc1 1225 0ef8 120f f526 0d06
00000020: f20c 091f fcff c413 0820 0107 1a0f 1913
00000030: 2503 ff0d 81e7 0c07 fae1 1403 1d21 1c0c
00000040: 0019 0f06 1f86 f9f4 de10 2219 2521 3c03
00000050: 2e27 fff6 e807 c7b2 1fe3 d6fd 23da 10f9
00000060: b5f7 f1fb dde6 1021 07c6 05a4 0ebc 10ee
00000070: 0afb f93a 0401 09ec f832 ee1e e015 fd00
00000080: 9503 00e7 ecaf c91a 0e32 17e5 05ca fb0d
00000090: 0508 fde9 d1b2 0be0 fbf4 13ed 0ff2 fe02
000000a0: d415 1810 e9bd eeb5 e710 0613 f2f1 00ff
000000b0: 42fc 380d e8e9 05ca 21fd 2cc0 fcd8 fbdc
000000c0: f312 33ce 0617 fc0a f614 0424 1eda db26
000000d0: f4ec d316 1a17 070f e724 eae3 2c07 1be6
000000e0: fbdf e2bd 1515 b517 c610 0b06 c888 a318
000000f0: f6ed ee31 c3b0 ef01 c0f4 0d12 cabd e4d5
-5 16 6 -4 6 31 -28 1
-23 5 23 -18 -6 -55 -20 11
10 2 -16 20 -69 -63 18 37
14 -8 18 15 -11 38 13 6
-14 12 9 31 -4 -1 -60 19
8 32 1 7 26 15 25 19
37 3 -1 13 -127 -25 12 7
-6 -31 20 3 29 33 28 12
0 25 15 6 31 -122 -7 -12
-34 16 34 25 37 33 60 3
46 39 -1 -10 -24 7 -57 -78
31 -29 -42 -3 35 -38 16 -7
-75 -9 -15 -5 -35 -26 16 33
7 -58 5 -92 14 -68 16 -18
10 -5 -7 58 4 1 9 -20
-8 50 -18 30 -32 21 -3 0
-107 3 0 -25 -20 -81 -55 26
14 50 23 -27 5 -54 -5 13
5 8 -3 -23 -47 -78 11 -32
-5 -12 19 -19 15 -14 -2 2
-44 21 24 16 -23 -67 -18 -75
-25 16 6 19 -14 -15 0 -1
66 -4 56 13 -24 -23 5 -54
33 -3 44 -64 -4 -40 -5 -36
-13 18 51 -50 6 23 -4 10
-10 20 4 36 30 -38 -37 38
-12 -20 -45 22 26 23 7 15
-25 36 -22 -29 44 7 27 -26
-5 -33 -30 -67 21 21 -75 23
-58 16 11 6 -56 -120 -93 24
-10 -19 -18 49 -61 -80 -17 1
-64 -12 13 18 -54 -67 -28 -43

sequential/conv2d/Conv2D f4 [32, 5, 5, 1]
00000000: 804c 94be bdf7 88be 977c 13be 28ca 07be
00000010: 7f18 143d 0259 debd 27c0 56be dc45 c7be
00000020: 05f9 bcbe 6464 92be 5fff e83d 1cd5 963d
00000030: 5057 7e3d cc48 a6bc 9bf7 8dbe 7272 1fbd
00000040: 62b0 d03d c027 1d3c 4f04 aabc c08a 1fbd
00000050: cf9f a93d bb1c 0c3e 5076 e13d 34ff 323e
00000060: f695 0c3e ea3f 3d3d 3323 1fbc 84e6 3ebd
00000070: cff9 9abd 9bc2 013e 263d 8ebc 0a7b 70bd
00000080: a341 25bd cd9b abbd a25f fcbd 3409 38bc
00000090: b15f b03d 8e54 463e 8532 1dbe 7d34 b4be
000000a0: a4b9 12bd c417 98bd 36f0 863e 7e40 a03d
000000b0: 4998 3dbe ad08 4bbd bdda 25be 2bff da3d
000000c0: 8fc3 5c3e 8ea2 093e 1464 10bd 9b05 10bd
000000d0: db46 ccbd 9874 d83c 63cc b53d b7f8 0f3d
000000e0: 0b87 87bc 03bb de3b 1587 69be db38 aebe
000000f0: 39b1 90bb 2a0b 0b3e f6ae 0b3e ffc8 3dbd
00000100: 4e5d 2ebe d73e f1bc 692e 87bd c285 1d3e
00000110: 941c 0d3e 97e4 d13d 0514 bdbc 384c a6bd
00000120: b304 35bb ca5c d03d 16c7 333e b974 c33c
00000130: 63cf a63c aa06 d83d c7d8 883d 58bb 223d
00000140: fada cc3d ed8b d33d f0ca 903d 593d aa3d
00000150: d3d1 0c3e 58ce 0bbe 3e3f 06be 9492 71bd
00000160: f04a 583d 68b9 133e 47f6 27be 48a6 7fbe
00000170: ca06 32be 487a 44be 8e65 463d 4c50 26bd
00000180: 316b 09be b229 88be 6937 9bbe 64a5 4abe
00000190: 80ab 523d 3967 ee3c 383e bcbd f369 853c
000001a0: fddd 6f3d 9890 fabc fc39 2dbd 4c7e fbbd
000001b0: bddf 6cbe 19e8 70be b848 993d 82e4 8b3c
000001c0: 78d6 933d 220b dbbc 90a7 edbb cf28 2d3d
000001d0: 7ddb f33d 5682 4f3e 93a2 413e 72bc 283e
000001e0: 3c01 563d 8498 f4bd 02a8 c8bd 145c 223c
000001f0: 9cbb c03c f929 4ebd d4b7 a63d f850 eb3d
00000200: 5cbc d83c b9b6 01be 41e2 e2bc 502a c5bd
00000210: afec cdbe bcc3 acbe 870e 91be 7916 95bd
00000220: 1c92 b4be 94ba 3fbe ccd0 abbc 62b3 55bd
00000230: 2172 8dbe 48d5 b1bd ceab 05bd 401f c93d
00000240: e0e4 dd3d 3db5 24be f089 85bd e9e9 563e
00000250: c12f 1b3e 12ea 503e 81df a4bc a390 163d
00000260: 07f1 ab3d 680a 1ebd 3c80 093c 9d5e 553d
00000270: a9cd 833d 826d a63d 0bea 82bd bd1e 41be
00000280: cb6d 883a 220b e73d 92db 1d3d baab 6ebd
00000290: 5679 bbbe 2cc6 8b3c c07b e23d 443c 5b3d
000002a0: f9c4 d4bd 00ee fabd 1328 7b3d 7964 cd3d
000002b0: 6218 5abd ade7 26be 0b94 22be 1af6 103e
000002c0: 1f02 72bd 72e9 38be 9ecc 9dbd 7124 833d
000002d0: 5527 f2bd 5417 60be 4d49 9abc 6390 4a3e
000002e0: 90e5 283e 9342 873d 7195 ee3d c129 863e
000002f0: c37a 793e fb43 f8bc 0757 713d ced4 123e
00000300: 731e 433d 3dfd 1abe e487 48be d48d 36bd
00000310: ba4f 1fbe 9e8d 35be e33d 9cbd eefb 02be
00000320: 7aec 59bd f299 603d f950 823d 32b0 503d
00000330: 7d64 c53d 3e0b 543d 1f2e ed3d 4ee3 d53d
00000340: fd6c c63d 1370 523d be8a 57be f350 be3c
00000350: 16df 253e 5a8b ec3d 8647 2b3d 6316 e6be
00000360: ea3d 85be d254 0ebe 61ba abbd 77df c4be
00000370: eb4f 3abe 7d3e fcbe 0f73 0cbf 6b6e cbbe
00000380: 9fdf 75be 904c c5bd 90f5 37bc 7337 773d
00000390: f08f 313e cb51 3e3e 3742 333d b60e cdbd
000003a0: 9c2a 72be bc28 9abd a325 ab3d dee0 f93c
000003b0: 691b 983d b935 82be 6c27 bebe 9a91 65be
000003c0: e8f2 aabc bd09 fc3d 1e8f 4f3c 9d48 91bc
000003d0: f07f f0bd a39e 6abc 7358 a13d ca66 6f3e
000003e0: d338 233e 7684 b73d 0ffe 05be 458e 5dbe
000003f0: 893d ddbd fe63 1c3d 2814 9a3d 84ea bdbd
-0.28964615 -0.2675151 -0.14402996 -0.1326071 0.036156174 -0.10856821 -0.20971738 -0.38920486
-0.36908737 -0.28592217 0.11376833 0.07364866 0.062094986 -0.020298384 -0.2772797 -0.038927503
0.10189892 0.009591997 -0.020754008 -0.03895068 0.08282434 0.13682835 0.110088944 0.17480165
0.1372908 0.04620353 -0.009712982 -0.046606556 -0.075671785 0.12671892 -0.017363142 -0.05871109
-0.0403458 -0.08379326 -0.12322928 -0.011232663 0.08612002 0.19368193 -0.15351303 -0.35196295
-0.035821572 -0.07426408 0.2635514 0.07824801 -0.18515123 -0.04956882 -0.16196723 0.10693201
0.21558975 0.13440916 -0.035251692 -0.035161596 -0.09974452 0.026422784 0.08876874 0.035149302
-0.016543886 0.006797196 -0.22805436 -0.34027752 -0.004415658 0.13578478 0.13640961 -0.046334263
-0.1702778 -0.02944891 -0.06600649 0.15383056 0.13780433 0.10248678 -0.023080835 -0.08120006
-0.002762121 0.10173948 0.17556414 0.023859369 0.020362562 0.10548146 0.06681972 0.039729446
0.10002704 0.10329423 0.07069957 0.083124824 0.13751917 -0.13652933 -0.13110062 -0.05897768
0.05280584 0.14426196 -0.16402541 -0.24965775 -0.17385402 -0.19187272 0.048436694 -0.04060392
-0.13419797 -0.2659431 -0.30315712 -0.19789654 0.051433086 0.029101955 -0.09191555 0.016285872
0.058561314 -0.030586526 -0.042291626 -0.122799486 -0.23132224 -0.23526038 0.07484573 0.017076734
0.07218641 -0.026738707 -0.007252641 0.042275246 0.119070984 0.20264563 0.18909673 0.16478136
0.05224727 -0.119431525 -0.0979767 0.009909648 0.02352696 -0.050332997 0.08140531 0.11490053
0.026457004 -0.1266736 -0.027695777 -0.09627211 -0.40219638 -0.33743083 -0.28331396 -0.07279677
-0.35267723 -0.18723518 -0.020973586 -0.052173026 -0.27626136 -0.08683258 -0.03263455 0.098204136
0.1083467 -0.16084762 -0.0652045 0.20987667 0.15154935 0.2040179 -0.020126106 0.03675903
0.08395582 -0.038584143 0.00839239 0.052092183 0.06435711 0.08126356 -0.063922964 -0.18859382
0.0010408697 0.1128142 0.038539477 -0.05826924 -0.3661601 0.01706227 0.1105876 0.05352427
-0.10389132 -0.12252426 0.061317515 0.10028929 -0.05324591 -0.16299315 -0.15876786 0.1415638
-0.059084054 -0.18057802 -0.07705043 0.06403435 -0.11823908 -0.21883899 -0.01883378 0.19781642
0.16493821 0.06604495 0.116495974 0.2620373 0.24363236 -0.030305853 0.058920886 0.14338991
0.04763646 -0.15135665 -0.19583088 -0.04456885 -0.15557757 -0.17729804 -0.076289915 -0.12791416
-0.053204037 0.054834314 0.063631006 0.050949283 0.09638307 0.051768534 0.115810625 0.104437456
0.096887566 0.051376414 -0.2104902 0.023231959 0.16198382 0.11550017 0.041816257 -0.44938955
-0.260238 -0.13899544 -0.08385158 -0.3845174 -0.18194549 -0.49266425 -0.54863065 -0.3973268
-0.24011086 -0.09633744 -0.01122798 0.060355615 0.17340064 0.18585889 0.04376432 -0.100125715
-0.23649067 -0.07527301 0.08356788 0.030502733 0.07427103 -0.25431612 -0.37139452 -0.22418824
-0.02086778 0.12306545 0.012668399 -0.01773482 -0.11743152 -0.0143200485 0.078781985 0.23379055
0.15939645 0.08960812 -0.13085197 -0.21636303 -0.108027525 0.038181297 0.07523376 -0.09273246

sequential/dense/BiasAdd/ReadVariableOp/resource f4 [128]
00000000: fe9e a6bc 5c98 d4bb b2ae 8f3c 3d8a 503c
00000010: 7f89 b3bc 2ccc 0bbd c972 f33b 5135 623c
00000020: 12bb 58bc d441 1abc e692 a03c 405f 6abc
00000030: 744e bb3d d795 0d3d 4001 28bd 3ba9 9f3d
00000040: c9d0 30bc 502a c83d 76ae 3f3d 41a1 f6bc
00000050: b655 a83d e8c7 8ebc 3233 83bc ea37 b53a
00000060: 80c2 2b3c e20f a4bc 6dbb 113d 9896 eb3a
00000070: 25f6 a63d 48a1 9db9 7229 0c3d 719a 83bc
00000080: 6f2a b8bd fce5 69bd a6f9 1dbc 48a8 0b3c
00000090: 9127 333d c546 36bc 2a92 3b3b c022 ca3c
000000a0: ad08 10bd e248 0dba 8d12 0fbd e587 63bd
000000b0: 6c0e e1bc 644f 89bc ca10 463d 81ab fc3b
000000c0: 103d c9bc 97b2 193d db42 5abc 646a 163d
000000d0: 33f3 92bc a219 9bbd dd6c a03c e957 aa3d
000000e0: f74a 99bb 7da9 7bbd fa18 3bbc b4ba dd3c
000000f0: d1a8 1abc 6758 48bd ba67 223d b07f 233d
00000100: 75de e8bc 3532 b93c fade cdba 983d fb3b
00000110: 66cf d73d 8239 50bc bb29 a53d 2248 1bbd
00000120: dd1e 9f3d 56fb b83d 96af c43b 8c3d f8ba
00000130: 8857 073d cb8d 94bc 76ef 143d d608 76bd
00000140: 8936 df3b 72d1 f0bb 37f8 0cbc c176 71bc
00000150: 6930 64bb 76ea eebc 6d32 4a3d 190c 80bc
00000160: 8c02 00bd 12ad 6e3b 8c77 423d 1b96 753c
00000170: cdbb 713d cfb9 ffbc 2187 5f3c f47b 263c
00000180: 98b4 8cbb 57d4 133a 0b69 bb3d c519 80bd
00000190: 4241 013c 956f 1e3d b426 543c 43ea 373d
000001a0: f23c 813d 640a a7bd b0f6 3b3d 98c6 6a3d
000001b0: f32a 243d 57c0 cb3c 8f9f 9d3d 33c6 ac3b
000001c0: b9e2 d03c e0f2 c13c 21c8 353d d4a4 263d
000001d0: 0a25 0c3c ab34 173c c2c8 0a3e 3ae8 bcbb
000001e0: d13e 243e 3211 533d 4345 413c 5be9 8e3c
000001f0: db24 9ebc 7b49 5cbd e8f2 f9bc c8fb 743d
-0.020339485 -0.006487889 0.017539356 0.012728271 -0.02191615 -0.03413026 0.007429455 0.013806657
-0.013228195 -0.009415109 0.019601297 -0.014304936 0.09145823 0.034566727 -0.041016817 0.0779595
-0.010791966 0.097736955 0.04679724 -0.030106189 0.08219473 -0.017429307 -0.016015623 0.0013825868
0.010483384 -0.020027105 0.035579134 0.0017973958 0.08152417 -0.00030065537 0.034219213 -0.016064854
-0.089924686 -0.057104096 -0.00964204 0.008524008 0.043738905 -0.011125271 0.0028621056 0.024674773
-0.035164524 -0.00053895835 -0.0349298 -0.05554952 -0.027472697 -0.01676149 0.048355855 0.0077108745
-0.02456525 0.037523832 -0.013321604 0.036722556 -0.017938232 -0.075732484 0.01958316 0.08317549
-0.004678126 -0.061440933 -0.011419529 0.027066566 -0.009439663 -0.048912432 0.039649703 0.039916694
-0.028426388 0.022606948 -0.0015706711 0.0076672547 0.10537605 -0.012709023 0.080646 -0.037910588
0.077695586 0.090323135 0.006002377 -0.0018939241 0.03304246 -0.018134018 0.03636118 -0.06006702
0.006811921 -0.0073491866 -0.008604101 -0.014737786 -0.0034818894 -0.029164534 0.049364496 -0.015630769
-0.03125243 0.0036419076 0.04747729 0.014989401 0.05901699 -0.03121653 0.013643057 0.010161389
-0.0042939894 0.0005639246 0.09150895 -0.06254915 0.007889094 0.03868063 0.012948681 0.044901144
0.063104525 -0.08156279 0.045889556 0.0573183 0.040080022 0.024871988 0.07696449 0.0052726506
0.025498735 0.023675382 0.04438031 0.040684536 0.008553753 0.009228866 0.13553146 -0.0057649883
0.16039588 0.05153007 0.011796298 0.017445257 -0.019304683 -0.053781014 -0.030511335 0.05981043

sequential/dense_1/BiasAdd/ReadVariableOp/resource f4 [10]
00000000: c3af c73c eb42 533d 902f a0bd a440 c03c
00000010: 21d9 11bd addf f7bc f153 b6bc d276 433d
00000020: 3f0f bf3c 38aa 603b
0.024375802 0.05157749 -0.07821572 0.023468323 -0.03560746 -0.030258024 -0.022256823 0.047720738
0.0233227 0.0034281146

sequential/dense/MatMul i1 [128, 512] scale=0.0049368665 zero_point=0
00000000: fd01 f001 0112 f81b 0200 03f8 13fa fdfd
00000010: 0910 28f4 f1f5 07f4 1313 0100 0de0 eafd
00000020: f8f9 f305 0719 f6f5 03f7 e1f1 00ff 0511
00000030: efee 0401 e8ee fd0b 0803 f805 09f9 ef05
00000040: f1f6 f201 1f04 0df3 fd03 0cf9 eaea ee09
00000050: 020a 0117 09e6 0913 f106 f509 fb08 08f1
00000060: 0c08 0107 0812 e0f8 e905 1af6 00e4 ec0e
00000070: f60d e6ee f9f8 10ec ec0c ecf3 e703 eee2
00000080: 191d f8ec eefb f50c ebf8 dff3 3315 def2
00000090: da1b 11ee ebfd d002 11f2 1fe2 23e4 f517
000000a0: 00f5 111b 0af6 1608 09d7 080e fefc 02f8
000000b0: 1de5 0dfd 161f 0bf1 03db e204 08e9 ddf0
000000c0: 150e e4f6 f7f8 0def d8fa f7e2 120c 0e05
000000d0: f1ee 1c00 fa0e 02fe dee3 ea03 1004 f4f4
000000e0: 0bdc f5dd fcf3 e500 f70b 0b02 fd29 1502
000000f0: ec04 f6f0 050c fde8 df0a f8fc e0f4 07ea
-0.014810599 0.0049368665 -0.07898986 0.0049368665 0.0049368665 0.0888636 -0.03949493 0.13329539
0.009873733 0.0 0.014810599 -0.03949493 0.09380046 -0.029621199 -0.014810599 -0.014810599
0.0444318 0.07898986 0.19747466 -0.059242398 -0.074053 -0.05430553 0.034558065 -0.059242398
0.09380046 0.09380046 0.0049368665 0.0 0.064179264 -0.15797973 -0.10861106 -0.014810599
-0.03949493 -0.034558065 -0.064179264 0.024684332 0.034558065 0.12342166 -0.049368665 -0.05430553
0.014810599 -0.0444318 -0.15304285 -0.074053 0.0 -0.0049368665 0.024684332 0.08392673
-0.08392673 -0.0888636 0.019747466 0.0049368665 -0.118484795 -0.0888636 -0.014810599 0.05430553
0.03949493 0.014810599 -0.03949493 0.024684332 0.0444318 -0.034558065 -0.08392673 0.024684332
-0.074053 -0.049368665 -0.06911613 0.0049368665 0.15304285 0.019747466 0.064179264 -0.064179264
-0.014810599 0.014810599 0.059242398 -0.034558065 -0.10861106 -0.10861106 -0.0888636 0.0444318
0.009873733 0.049368665 0.0049368665 0.11354793 0.0444318 -0.12835853 0.0444318 0.09380046
-0.074053 0.029621199 -0.05430553 0.0444318 -0.024684332 0.03949493 0.03949493 -0.074053
0.059242398 0.03949493 0.0049368665 0.034558065 0.03949493 0.0888636 -0.15797973 -0.03949493
-0.11354793 0.024684332 0.12835853 -0.049368665 0.0 -0.13823226 -0.09873733 0.06911613
-0.049368665 0.064179264 -0.12835853 -0.0888636 -0.034558065 -0.03949493 0.07898986 -0.09873733
-0.09873733 0.059242398 -0.09873733 -0.064179264 -0.12342166 0.014810599 -0.0888636 -0.148106
0.12342166 0.14316913 -0.03949493 -0.09873733 -0.0888636 -0.024684332 -0.05430553 0.059242398
-0.103674196 -0.03949493 -0.1629166 -0.064179264 0.25178018 0.103674196 -0.16785346 -0.06911613
-0.18760093 0.13329539 0.08392673 -0.0888636 -0.103674196 -0.014810599 -0.23696959 0.009873733
0.08392673 -0.06911613 0.15304285 -0.148106 0.17279032 -0.13823226 -0.05430553 0.11354793
0.0 -0.05430553 0.08392673 0.13329539 0.049368665 -0.049368665 0.10861106 0.03949493
0.0444318 -0.20241153 0.03949493 0.06911613 -0.009873733 -0.019747466 0.009873733 -0.03949493
0.14316913 -0.13329539 0.064179264 -0.014810599 0.10861106 0.15304285 0.05430553 -0.074053
0.014810599 -0.18266407 -0.148106 0.019747466 0.03949493 -0.11354793 -0.17279032 -0.07898986
0.103674196 0.06911613 -0.13823226 -0.049368665 -0.0444318 -0.03949493 0.064179264 -0.08392673
-0.19747466 -0.029621199 -0.0444318 -0.148106 0.0888636 0.059242398 0.06911613 0.024684332
-0.074053 -0.0888636 0.13823226 0.0 -0.029621199 0.06911613 0.009873733 -0.009873733
-0.16785346 -0.14316913 -0.10861106 0.014810599 0.07898986 0.019747466 -0.059242398 -0.059242398
0.05430553 -0.1777272 -0.05430553 -0.17279032 -0.019747466 -0.064179264 -0.13329539 0.0
-0.0444318 0.05430553 0.05430553 0.009873733 -0.014810599 0.20241153 0.103674196 0.009873733
-0.09873733 0.019747466 -0.049368665 -0.07898986 0.024684332 0.059242398 -0.014810599 -0.118484795
-0.1629166 0.049368665 -0.03949493 -0.019747466 -0.15797973 -0.059242398 0.034558065 -0.10861106

sequential/dense_1/MatMul i1 [10, 128] scale=0.005068975 zero_point=0
00000000: 0e03 d4b4 f9e5 f021 0522 f506 29d4 d90a
00000010: fb1a dafd 2c1d 01ff fe1d c21e 292d 1a09
00000020: e6ee e7e4 9e1b 37dc e604 f511 ea0f dbe0
00000030: e221 011a e202 e8bd cf24 18c5 0bf4 f9dc
00000040: fbfc dc35 17de c40f e9df eb12 edf4 de0b
00000050: 15ee cfec fce3 db06 0d1f b7f3 17fe 2214
00000060: 0122 f704 e423 3629 8c12 0547 f6c8 f81e
00000070: 36bf 3ae8 fa21 0cfe 0332 1d49 ed05 d218
00000080: 12e4 20fb e3e0 05bc 061c f4ba 252f 1209
00000090: 1430 03f5 3422 fcc6 08f1 00c7 4012 0fed
000000a0: ffe5 dcfe fefa 2be5 f8fa fd17 15f7 140a
000000b0: 1f2b f0fe 1cda 1527 f6f0 031c f5f0 dd0f
000000c0: e631 0bf7 3619 1ee1 d22b fb24 e8c8 04d1
000000d0: fbef 2c25 1fd3 f8da 021e 4517 4dee c2db
000000e0: d1d2 1fe9 fffc fff3 13bf 1f36 ce08 1ad8
000000f0: 3af7 2844 e9dc 2a0f 220c e9e7 13eb 150e
0.07096565 0.015206926 -0.2230349 -0.3852421 -0.035482824 -0.13686232 -0.0811036 0.16727617
0.025344875 0.17234515 -0.055758726 0.030413851 0.20782797 -0.2230349 -0.19769002 0.05068975
-0.025344875 0.13179335 -0.19262105 -0.015206926 0.2230349 0.14700028 0.005068975 -0.005068975
-0.01013795 0.14700028 -0.31427646 0.15206926 0.20782797 0.22810388 0.13179335 0.045620777
-0.13179335 -0.09124155 -0.12672438 -0.1419313 -0.49675956 0.13686232 0.27879363 -0.1824831
-0.13179335 0.0202759 -0.055758726 0.08617257 -0.11151745 0.07603463 -0.18755208 -0.1622072
-0.15206926 0.16727617 0.005068975 0.13179335 -0.15206926 0.01013795 -0.121655405 -0.33962134
-0.24837978 0.1824831 0.121655405 -0.29906952 0.055758726 -0.060827702 -0.035482824 -0.1824831
-0.025344875 -0.0202759 -0.1824831 0.2686557 0.116586424 -0.17234515 -0.3041385 0.07603463
-0.116586424 -0.16727617 -0.10644848 0.09124155 -0.096310526 -0.060827702 -0.17234515 0.055758726
0.10644848 -0.09124155 -0.24837978 -0.1013795 -0.0202759 -0.14700028 -0.18755208 0.030413851
0.065896675 0.15713823 -0.37003517 -0.065896675 0.116586424 -0.01013795 0.17234515 0.1013795
0.005068975 0.17234515 -0.045620777 0.0202759 -0.1419313 0.17741412 0.27372465 0.20782797
-0.58800113 0.09124155 0.025344875 0.35989723 -0.05068975 -0.2838626 -0.0405518 0.15206926
0.27372465 -0.3294834 0.29400057 -0.121655405 -0.030413851 0.16727617 0.060827702 -0.01013795
0.015206926 0.25344875 0.14700028 0.37003517 -0.096310526 0.025344875 -0.23317285 0.121655405
0.09124155 -0.1419313 0.1622072 -0.025344875 -0.14700028 -0.1622072 0.025344875 -0.3446903
0.030413851 0.1419313 -0.060827702 -0.35482824 0.18755208 0.23824182 0.09124155 0.045620777
0.1013795 0.24331081 0.015206926 -0.055758726 0.2635867 0.17234515 -0.0202759 -0.29400057
0.0405518 -0.07603463 0.0 -0.28893158 0.3244144 0.09124155 0.07603463 -0.096310526
-0.005068975 -0.13686232 -0.1824831 -0.01013795 -0.01013795 -0.030413851 0.21796593 -0.13686232
-0.0405518 -0.030413851 -0.015206926 0.116586424 0.10644848 -0.045620777 0.1013795 0.05068975
0.15713823 0.21796593 -0.0811036 -0.01013795 0.1419313 -0.19262105 0.10644848 0.19769002
-0.05068975 -0.0811036 0.015206926 0.1419313 -0.055758726 -0.0811036 -0.17741412 0.07603463
-0.13179335 0.24837978 0.055758726 -0.045620777 0.27372465 0.12672438 0.15206926 -0.15713823
-0.23317285 0.21796593 -0.025344875 0.1824831 -0.121655405 -0.2838626 0.0202759 -0.23824182
-0.025344875 -0.08617257 0.2230349 0.18755208 0.15713823 -0.22810388 -0.0405518 -0.19262105
0.01013795 0.15206926 0.34975928 0.116586424 0.3903111 -0.09124155 -0.31427646 -0.18755208
-0.23824182 -0.23317285 0.15713823 -0.116586424 -0.005068975 -0.0202759 -0.005068975 -0.065896675
0.096310526 -0.3294834 0.15713823 0.27372465 -0.25344875 0.0405518 0.13179335 -0.202759
0.29400057 -0.045620777 0.202759 0.3446903 -0.116586424 -0.1824831 0.21289696 0.07603463
0.17234515 0.060827702 -0.116586424 -0.12672438 0.096310526 -0.10644848 0.10644848 0.07096565
